model_ppo_2cv_lot/mappo/3m/1_critic_params.pkl (torch, 126209 bytes, 11 tensors)

cv.weight f4 [8, 3, 3, 3]
000000 dd 57 39 bd 92 85 0e 3e e0 bf 19 bc 59 e8 0b bf
       -0.04524981 0.1391814 -0.0093841255 -0.5465141
000010 76 19 21 bf a2 11 5c bf 48 c2 4b 3c 75 91 e8 3d
       -0.62929475 -0.85964406 0.012436457 0.11355869
000020 f4 03 17 3d 26 c5 24 3e 71 41 ad 3d 1d 68 bc 3b
       0.036869004 0.16090831 0.084597476 0.005749716
000030 e0 a0 1c 3e 16 4e 34 3e a7 0d e7 3d 12 a0 55 3e
       0.15295744 0.17607912 0.11281901 0.20861843
000040 48 81 cd 3d 19 e4 1c 3e cd 51 7c 3e 61 43 df 3e
       0.10034424 0.15321387 0.2464058 0.43606094
000050 15 3e 00 3f 65 6f 0e 3f c0 e0 3e 3e ab 22 29 3f
       0.5009473 0.55638725 0.18640423 0.66068524
000060 7e 3d 85 3e e3 87 ba 3e dc 5d f6 3e 80 18 09 3d
       0.26023477 0.36431798 0.48118484 0.03347063
000070 27 a4 43 bf e0 4d 10 bd 35 e3 ed 3d 51 31 53 bf
       -0.7642235 -0.035230517 0.11615602 -0.82497126
000080 79 93 36 3e c9 59 b7 bc d3 44 3b bf 0b 58 41 bd
       0.17829694 -0.02238168 -0.7315189 -0.047203105
000090 3a 7a 53 3e e8 1d 84 3e 3b 5f cc 3d 4b d0 35 3e
       0.20652094 0.25804067 0.09979101 0.17755239
0000a0 de 63 4e 3e 8d 9d 43 bc 72 b6 09 3e a4 41 53 3e
       0.20155284 -0.0119394185 0.13448504 0.20630509
0000b0 df 5b 59 bd 06 43 c2 3e b6 05 00 3f 11 cd b1 3e
       -0.05306613 0.3794176 0.50008714 0.34726766
0000c0 ed 31 e8 3d 3c 39 d4 3c da d0 f3 3d 9b d3 a9 3e
       0.113376476 0.025906198 0.1190507 0.33169255
0000d0 a4 be de 3e dc b4 9f 3e a6 85 cb ba c0 54 1e 3e
       0.43504822 0.31192672 -0.0015527501 0.15462017
0000e0 f9 d0 18 3e 5d e3 04 be 8e e1 be bd f0 07 34 3e
       0.14923467 -0.12977357 -0.09320365 0.17581153
0000f0 fd 10 80 bd f4 55 a3 bd d5 69 8c bd 37 40 2a bf
       -0.0625324 -0.07975379 -0.06856123 -0.66504234
000100 8a 0b 53 be f1 96 00 bf f7 c8 23 bf e8 0e 28 3e
       -0.2060987 -0.5023032 -0.63978523 0.16411936
000110 50 cd 40 bf 13 20 36 bf cd 29 bd be 58 02 0a bf
       -0.7531328 -0.7114269 -0.36945954 -0.53909826
000120 2f 33 e0 3d f9 66 f3 3e 7e 58 1e 3f ba 79 77 3e
       0.109472625 0.475395 0.6185378 0.24167529
000130 32 8d 25 3f f3 7a 05 3e e3 4c ab 3d 70 53 75 3e
       0.6466857 0.13035183 0.08364274 0.2395761
000140 77 d4 ea 3d df a9 5c 3d e9 81 f3 3d b9 23 7b 3c
       0.11466306 0.05387294 0.11890013 0.015328341
000150 87 60 81 3e fe c5 30 3e e7 da e0 3d ce 8f 17 3e
       0.25268957 0.17263028 0.10979252 0.14800951
000160 8c ae 51 3e 41 f3 8e 3a 55 b2 d2 3c 99 03 ce 3c
       0.2047674 0.0010906236 0.025719801 0.0251482
000170 f6 02 b4 3d 4b 42 17 bb 3c a7 bb ba b5 27 49 3d
       0.08789627 -0.0023080285 -0.0014316808 0.049110133
000180 c0 ef 61 bd 04 a8 1c 3c 4f b8 82 3d 66 82 9a 3d
       -0.055160284 0.009561542 0.0638281 0.07544403
000190 1d 22 24 bc eb bf 09 3e 28 8e ba be 0c c7 91 bd
       -0.010017899 0.13452117 -0.36436582 -0.07118043
0001a0 c1 06 d3 3d af 1f 38 3a b5 92 35 3d 0d 84 07 3d
       0.103040226 0.0007023764 0.044329364 0.033084918
0001b0 f8 00 8f bd f6 82 e7 bd 10 6f 0d be 2c db d3 bd
       -0.06982607 -0.11304276 -0.13811898 -0.10344538
0001c0 51 8b 4c bd fc 6e 5b be 73 cb e9 3c fe 65 ad bc
       -0.04993755 -0.21429056 0.028539395 -0.021166798
0001d0 75 23 17 3a 32 92 b7 3e 71 fd e2 3e e5 0a aa 3e
       0.00057654764 0.35853726 0.44333985 0.33211437
0001e0 90 b6 db 3e 36 8f 9d be d4 5b fc 3e 8b 65 5a 3e
       0.42912722 -0.30773324 0.4928881 0.21327798
0001f0 73 d4 fd 3e aa 56 bf 3e 79 31 25 3e 79 00 d8 3e
       0.49576148 0.37370807 0.16132154 0.4218786
000200 07 98 82 3e a4 95 aa 3e b6 72 8d 3f b1 60 05 3f
       0.25506613 0.33317292 1.1050632 0.52100664
000210 e1 d6 80 be ce 06 35 bd 65 ef fe bd 19 e7 1d be
       -0.2516394 -0.044195943 -0.12448005 -0.15420188
000220 c0 0b 8b bb 4a 5b ad 3c c7 42 b1 bd 8f c0 7f 3d
       -0.004243344 0.021161694 -0.08655315 0.062439498
000230 b1 f3 38 3d 25 0d fb be 45 70 fd bd eb f8 2a bd
       0.045154277 -0.49033466 -0.12374929 -0.041741293
000240 a0 46 a9 bd 96 a9 04 3e 6f 0f 2f 3e c1 c6 94 3e
       -0.08265424 0.12955317 0.17095731 0.29057887
000250 ec c0 11 3e 60 00 70 3e 20 cd ff 3c d9 b1 a5 3e
       0.1423375 0.23437643 0.03122574 0.3236225
000260 ff b2 03 3f a4 09 c5 3e dc 22 71 3e 9f c6 db 3d
       0.51445 0.38483918 0.23548454 0.10731243
000270 ec 1c 1c 3f 47 26 de 3e cd 01 18 3d 4a 72 bd 3e
       0.6098163 0.43388578 0.037111092 0.37001258
000280 15 2e fd 3e 81 99 98 3e b9 73 73 3d ec 01 28 bc
       0.4944922 0.29804614 0.059436534 -0.010254364
000290 bc 72 f0 3d 60 20 38 bd 4b b3 9d 3e 98 09 19 be
       0.11740634 -0.04495275 0.30800852 -0.14945066
0002a0 e9 d6 c5 3d 00 12 8a be ef 38 40 3e 88 bc f5 3e
       0.096601315 -0.26966858 0.18771718 0.479954
0002b0 82 b7 4b 3e e3 4e b1 3d cd c5 ae 3e 6c fe cd 3d
       0.19894221 0.086576246 0.34135285 0.10058293
0002c0 4d db be 3d 5b 6a 08 3c 3a d9 96 3e d9 bc c1 3d
       0.09319172 0.008326138 0.29462606 0.09459848
0002d0 bb 39 96 3d 75 20 2e 3e 8c 88 b7 3d bc 8b d9 3d
       0.0733523 0.17004569 0.08961591 0.10622355
0002e0 3d 44 5d be 53 fa 1a 3d 75 c0 df 3d 03 aa 39 bb
       -0.21608062 0.037836384 0.1092538 -0.0028330095
0002f0 5b af d2 3c b4 9d 20 3d cb db bd bc f9 5d 2b bc
       0.025718382 0.039212897 -0.023176095 -0.010459417
000300 77 da 3e 3c e4 d4 90 3b b3 52 97 bd 9a 3e d2 3c
       0.011648766 0.00441991 -0.073888205 0.025664616
000310 f5 a7 4f bd d1 28 84 bc d4 f6 4b be cc c7 c0 be
       -0.050697286 -0.016132744 -0.19918376 -0.37652433
000320 a6 f6 9b be 4b a0 99 be 07 5b 5c 3e 3e e6 b8 be
       -0.30461615 -0.30005106 0.21519099 -0.3611316
000330 df ef 77 be 83 35 98 be 5e 23 c0 be ea eb a5 3e
       -0.24212597 -0.29728326 -0.37526983 0.3240655
000340 cc d7 0d 3f 9a b8 69 3e dd 9a fc 3e eb 19 6e 3f
       0.55407405 0.22824326 0.493369 0.930083
000350 fe 92 25 3f 29 57 00 3f 0f 39 37 3f f0 f6 ec 3e
       0.6467742 0.50132996 0.7157144 0.46282148

cv.bias f4 [8]
000000 c3 37 52 be 3f 50 f4 bd 79 46 81 be 50 14 9d be
       -0.20529084 -0.11929368 -0.2524908 -0.3067956
000010 7b 4b 6f 3d 4c 76 51 bd 35 0e cf be 95 5f 1c 3d
       0.058421593 -0.051138207 -0.40440527 0.03817709

cv2.weight f4 [16, 8, 3, 3]
000000 99 3e 8c be 8b 64 05 3e 62 39 3b 3e 8b 3d e1 bc
       -0.27391508 0.13026635 0.18283609 -0.027495166
000010 60 28 83 be 8c 28 ba 3d a7 01 dd 3d 68 8d aa 3e
       -0.2561674 0.09089765 0.10791331 0.3331101
000020 ec f2 51 3e b2 1d ab 3d 2c 10 e7 3d ea 2c 10 be
       0.20502824 0.08355273 0.112823814 -0.14079633
000030 71 5d 77 3d de 55 d3 3d 74 87 7f 3e a4 fe 88 be
       0.060391847 0.10319112 0.24954015 -0.26756775
000040 b0 f2 19 3d 98 14 a9 bc f1 ea 9e 3e c9 0d e4 bd
       0.03758496 -0.020639703 0.3103862 -0.11135442
000050 b6 e4 92 3d 43 e5 3d 3c 4b f2 9b bd cd 83 99 bd
       0.071725294 0.011590305 -0.07614573 -0.07495842
000060 57 20 67 3c cc 11 a6 be 95 32 06 be 3e dc 69 3d
       0.0141068315 -0.32435453 -0.13105233 0.057094805
000070 c1 72 a0 bc f3 3b 06 be 46 09 4e bd e4 1c b4 3d
       -0.019585969 -0.13108806 -0.050301813 0.08794573
000080 2c d7 df bd 5a cd 00 3e 6d 19 95 3e 7b 01 25 be
       -0.10929713 0.12578335 0.2912096 -0.16113846
000090 34 19 23 3f 4e c7 8c 3e 07 fc 84 bd 74 4f 83 3e
       0.6371033 0.27495807 -0.06493383 0.25646555
0000a0 08 ee d0 3d 6d 78 9b bd ac 68 51 3e 3e 7d 92 3d
       0.10201651 -0.07591329 0.20450085 0.07152794
0000b0 90 42 13 bf b6 4d aa 3e c1 84 70 3d fc b8 02 3e
       -0.5752344 0.33262414 0.058720354 0.12765878
0000c0 67 1e ab 3d 16 9e 23 be 23 15 06 3b ad 21 b3 bd
       0.08355408 -0.15978274 0.0020459376 -0.087466575
0000d0 24 4c bb be 51 07 80 be bd 1d 54 be f3 88 cb bc
       -0.36581528 -0.25005582 -0.20714469 -0.024845576
0000e0 c5 da 24 3d 08 29 57 bd 40 2c 64 bb ea 01 8c be
       0.040247697 -0.052529365 -0.0034816414 -0.2734521
0000f0 5f 00 36 be 94 60 7e be 8e bb 98 bd e7 1b 12 3e
       -0.17773579 -0.24841529 -0.07457648 0.14268456
000100 0f 8d ea 3d be f6 1d bb 95 7b 18 3e ed ff f9 3d
       0.11452686 -0.0024103369 0.14890893 0.12207017
000110 e5 23 0c be c8 8a 5c bd 41 18 86 3e 8a 40 9c b9
       -0.13685568 -0.05384329 0.2619038 -0.00029802724
000120 0a 86 51 3e 28 3f 03 3f 1b 03 b3 3e 7d be 98 bd
       0.20461288 0.51268244 0.34963307 -0.07458208
000130 e7 79 ce 3d d9 9e 88 3d 5f 69 84 3d a0 33 b9 be
       0.10081845 0.06670923 0.064654104 -0.361722
000140 c2 5f 96 bd 36 15 05 be aa 43 c7 3e 41 a5 f3 3d
       -0.07342483 -0.12996373 0.3891881 0.11896754
000150 4b f0 24 3d 40 c1 f8 3e 3d 6b e6 bd c0 62 81 3e
       0.040268224 0.48584938 -0.11250923 0.25270653
000160 ae 4e a9 3e 5d a0 24 3e b6 2a 26 be 51 06 ae bd
       0.3306784 0.16076799 -0.1622723 -0.084972985
000170 bf 85 7c 3b 44 d8 be bd eb bf 66 be 50 25 2d be
       0.0038531867 -0.09318593 -0.22534148 -0.16908765
000180 c0 5c 23 be 51 a4 b5 bd f1 e9 a4 bb 83 ef 92 be
       -0.1595335 -0.088692315 -0.005032771 -0.28698358
000190 7c 34 d6 be f2 c7 54 be 30 4e db bd 2c 35 c9 bd
       -0.41836917 -0.20779398 -0.107082725 -0.09824595
0001a0 b0 14 37 bd 27 04 22 be 2b 4f cf 3d da ac 9f be
       -0.044697464 -0.15821896 0.10122522 -0.31186563
0001b0 b4 ce ff 3c fd 76 1d 3e 64 10 28 bd 0e 9f 91 3e
       0.031226493 0.15377422 -0.041031256 0.28441662
0001c0 8a 57 88 3e 89 31 7b 3e f9 f1 db ba fc 13 d5 bd
       0.26629287 0.24530615 -0.0016780487 -0.10404202
0001d0 e1 f3 41 be 68 ac 95 3e c5 75 ed bd 04 7f 71 bd
       -0.18940689 0.29233098 -0.115947284 -0.058959022
0001e0 12 5f 13 3e 71 da 24 be 32 c5 77 bd 7c ae af 3e
       0.14391735 -0.16098954 -0.060490794 0.3431281
0001f0 b3 26 56 be 3b 47 4b 3c f8 fd 3c bd 6a f6 25 bf
       -0.209132 0.012407119 -0.04614064 -0.64829123
000200 16 d9 15 bd fc bd 2d be 13 97 ac be cd 30 55 bd
       -0.036583982 -0.16967005 -0.3370901 -0.052048493
000210 a0 a8 6d 3e 82 6e 37 3d f8 ab 79 3e 19 05 44 be
       0.23208857 0.044783123 0.24382007 -0.1914257
000220 77 ad 97 be 53 2e 98 be 06 a8 2e 3d e9 f2 b0 be
       -0.2962453 -0.29722843 0.04264071 -0.34560326
000230 06 f9 e3 be 0b ee 35 bd 46 f5 76 be e1 39 d9 bd
       -0.44525927 -0.04441647 -0.24117002 -0.10606743
000240 66 95 7f 3e 82 e2 93 be c1 d8 eb bd 50 00 18 3e
       0.24959335 -0.2888375 -0.11515952 0.14843869
000250 b0 0d f9 3d 03 b0 b3 bc 7e 63 14 3e 64 24 df 3e
       0.12160814 -0.021934515 0.14491078 0.4358245
000260 ab 80 6b 3d 23 32 22 3e d7 2b 29 3e 28 90 ac bd
       0.057495754 0.15839438 0.1652063 -0.08425933
000270 7c 0d 6a 3e 6f c5 b5 3e 06 1e 13 3d 4c 8d 54 3e
       0.22856706 0.35502192 0.035917304 0.20757025
000280 7f 7d a0 3e c2 02 4b 3e 9d 55 86 be c6 2c 46 3e
       0.31345746 0.19825271 -0.26237193 0.19353017
000290 fd c4 5e be 94 dc 38 3d b1 8c 9b 3e 1c 17 cb 3c
       -0.21754833 0.045132235 0.30380777 0.024791293
0002a0 c8 4b e4 bd b2 e6 1e 3e 9e 25 37 3e 3e c2 a8 be
       -0.111472666 0.15517691 0.17885444 -0.32960695
0002b0 3e 6c 36 bd b1 b9 f2 bd 9d 39 b9 3d e8 de cd bd
       -0.04453682 -0.11851824 0.09044192 -0.100522816
0002c0 c7 2f 1f be 1f ed e8 bd 85 6e cd be 82 9c 87 be
       -0.1554557 -0.11373352 -0.40123382 -0.26486593
0002d0 9a 99 7f bd f1 13 b7 bd 73 da 47 3e 29 c7 72 3e
       -0.062402345 -0.089393504 0.19516926 0.23708786
0002e0 6a 2e 5a 3c 1e 7f 36 3e ad 1a 03 3e 71 d8 55 3e
       0.01331673 0.17821929 0.12803145 0.20883347
0002f0 ee e9 1b 3e f0 2f 0b 3e b2 f5 1d 3e c3 bd a9 bd
       0.15225956 0.13592505 0.15425757 -0.08288147
000300 73 c2 71 3d 74 bf fa 3d af 50 9b 3e 99 ff 15 3d
       0.05902333 0.12243548 0.30334994 0.03662071
000310 45 69 56 3e 35 da 8d 3e 98 2b 80 3d bb 74 18 be
       0.20938595 0.2770554 0.06258315 -0.14888279
000320 09 82 aa 3d a4 ad 14 3d 65 61 97 be 36 ac 50 be
       0.083255835 0.03629841 -0.29566494 -0.20378193
000330 44 2c 82 3d a0 bc 0a bf a5 25 be bd 60 8d ce 3c
       0.06356099 -0.5419407 -0.09284524 0.025213897
000340 11 cd d0 3d ea 71 e3 bd 11 49 bc 3e f0 08 75 3e
       0.10195363 -0.11105712 0.36774495 0.2392919
000350 8c 19 f4 3d 3a 9d 8c 3e 6b cb aa 3e 4a 64 8b 3e
       0.11918935 0.27463704 0.3335832 0.27224952
000360 d5 6c a2 3d 62 83 ba 3e c7 fd b8 bd 3f 57 b8 3d
       0.07930914 0.36428362 -0.09032779 0.09001016
000370 1d 4c de bc fd 7d 2c bd 3c 9f 8b be 67 73 f2 bc
       -0.027135903 -0.04211234 -0.27269924 -0.029596044
000380 ee a4 a0 3e cf 4b 87 3c b9 c2 7e be 4e a1 d7 3d
       0.3137583 0.01651564 -0.24878968 0.10528813
000390 f8 cc 6c bd c3 2f 32 bd e0 c8 09 3f c0 30 52 be
       -0.05781266 -0.04350258 0.53822136 -0.20526409
0003a0 41 0b 98 3e c5 71 54 bd 90 a7 65 3d b5 b8 b9 bd
       0.29696086 -0.05186631 0.056068003 -0.09068433
0003b0 3d 5a ea 3e 66 ce eb bd a6 93 cb bd 0b 3d 0c bd
       0.4577197 -0.11513977 -0.09940271 -0.034237903
0003c0 30 ef ac 3d 32 91 43 3e 0f 25 1a 3e ef a8 be bd
       0.08444059 0.19098356 0.15053199 -0.09309565
0003d0 04 bf e9 3b 3e 63 9c be f1 a5 e4 3d 58 ea a5 bd
       0.0071333665 -0.30544466 0.11164463 -0.08101338
0003e0 12 ae 9d be 42 05 92 3d e3 e4 21 3e a9 ae f1 bd
       -0.30796868 0.07129909 0.1580997 -0.11800892
0003f0 74 86 d5 be a1 ee 77 be 45 f4 8f be ea 79 2b 3e
       -0.41704142 -0.24212123 -0.2811605 0.16745725

cv2.bias f4 [16]
000000 3d 33 09 3c 10 71 a9 3d 6d 6b 9c bc c2 24 1d be
       0.008374033 0.08273518 -0.019094193 -0.15346053
000010 06 40 00 3e 5a e6 b6 3d c8 fe be bd b2 22 fb bc
       0.12524423 0.08930655 -0.093259394 -0.030656192
000020 77 76 24 3b 7b 58 14 bd e0 e4 22 bc 0f fc bf bc
       0.0025095025 -0.036217194 -0.009942263 -0.02343562
000030 94 bb 06 3d 36 f0 55 bd cc f5 b1 bd 0f 40 2b bc
       0.032893732 -0.052231036 -0.0868946 -0.0104522845

fc1.weight f4 [64, 66]
000000 6d ac fa 3d 35 c7 36 3d 3e 2e 6a bd 73 40 b7 be
       0.12239919 0.044623572 -0.057173006 -0.35791358
000010 00 d6 33 3e 2b ae 27 3c b9 85 17 bd 3d 93 84 3e
       0.17562103 0.010234396 -0.036992762 0.25893584
000020 34 27 b9 be 53 f3 cc 3e bd d6 1c 3f bc a5 85 3c
       -0.36162722 0.40029392 0.61265165 0.01631438
000030 5e e9 c1 bc 72 0f dd bb e5 06 9b bd 10 94 44 bc
       -0.023670848 -0.006746226 -0.075696744 -0.0119981915
000040 eb 4e 47 be e7 71 2d 3e eb 19 0a bf 69 da 0c be
       -0.19463699 0.16937982 -0.539458 -0.13755192
000050 2f 84 7f be 3b df ef 3d 92 c4 d8 be 8d 3f ca 3c
       -0.24952768 0.117125 -0.4233747 0.024688506
000060 35 24 38 be f9 a6 d4 3d 2a 6c fc 3e 4f 99 8d be
       -0.17982562 0.1038341 0.49301273 -0.27656028
000070 c1 74 4e be 74 fa 0e 3e 32 1f fa 3b 06 cb ce bd
       -0.20161726 0.13962728 0.0076331133 -0.100973174
000080 ab 10 89 3e 99 9d d5 be c2 41 4b be be 17 71 3e
       0.2677053 -0.417218 -0.19849303 0.23544213
000090 d3 98 57 3e 6f cc 72 3e 5d 40 b3 3b 10 86 5c be
       0.21054392 0.23710798 0.005470319 -0.21535516
0000a0 fc 5a 26 3e aa f7 6a bd da 47 87 3d 76 21 ce 3e
       0.16245645 -0.057365097 0.066055015 0.40259904
0000b0 91 74 aa be f8 94 23 be ee 32 0d 3e b1 9f f7 3d
       -0.33292058 -0.15974796 0.1378896 0.120910056
0000c0 6f a1 b8 bd bc 3c ac bd 43 46 52 bd a9 c1 16 be
       -0.09015166 -0.08410022 -0.051336538 -0.14722313
0000d0 7b 4a 39 bc 86 2e 97 be 29 5b 36 be ad ca 39 3e
       -0.011309261 -0.29527682 -0.17808212 0.18143721
0000e0 ed 6c e9 3d d9 51 ef 3e b8 6f cf 3d e8 ce d8 3e
       0.11397729 0.46742132 0.101287305 0.42345357
0000f0 15 79 9a be 13 b0 e8 3e c9 c6 d4 3a c4 98 05 bf
       -0.30170503 0.45446834 0.0016233559 -0.52186227
000100 26 73 f1 bd 25 78 3c be ba 11 f9 3d 9d 15 83 3d
       -0.11789541 -0.18405207 0.12161584 0.06400607
000110 6f cb 87 be 4c 48 dd be a2 3a ae 3c bf cc 57 be
       -0.26522395 -0.4321922 0.021268193 -0.21074198
000120 ff 96 15 3f 5b 9e 8f 3e ae f8 c3 3d 21 fb d6 3d
       0.58433527 0.28050503 0.09568916 0.10497118
000130 1c 78 d2 3e 11 9b 40 3e 12 11 d2 bd 6d d6 6b bd
       0.4110726 0.18809153 -0.10257162 -0.05757754
000140 49 fa 19 be 9f df ab 3e 02 96 37 3e 62 37 0b bf
       -0.15036882 0.33569047 0.17928317 -0.5438138
000150 f3 63 df 3c d8 47 bf bc 98 13 0e be 10 8d b1 bd
       0.02726934 -0.023349687 -0.13874662 -0.08669484
000160 49 5f c2 3d 75 bc 8d 3e ce 05 68 3e 27 34 4c 3e
       0.094908305 0.27682844 0.22658464 0.1994177
000170 33 8c b6 bd 16 95 12 39 bb 43 3b 3e 50 19 bf 3c
       -0.0891346 0.00013979184 0.18287556 0.0233275
000180 74 41 67 3e b2 3e 90 bd 8e ed 04 bf 3f 1e 88 3e
       0.22583562 -0.07043208 -0.5192498 0.26585576
000190 73 77 9e 3e 33 69 0e 3f 24 72 da bd e8 d6 ea 3b
       0.30950508 0.5562927 -0.10666302 0.007166732
0001a0 9b 77 88 bd a1 4a c9 bd 1d bd 24 3c fb 87 7d 3e
       -0.06663438 -0.098286875 0.010054854 0.24758904
0001b0 46 a4 86 be 72 99 77 3e e5 7c 1e be 79 15 a2 be
       -0.26297206 0.24179628 -0.15477331 -0.31657007
0001c0 0e 9a 80 bd 43 cb 42 3d 8f e8 b1 3e 4b 3f 4b bd
       -0.062793836 0.047557127 0.3474774 -0.049620908
0001d0 a6 36 d2 bb 4f 5e 1e 3e b9 42 02 be 72 7c 8d 3e
       -0.006415206 0.15465663 -0.12720765 0.27634007
0001e0 90 b0 5c 3d 28 86 29 be 6d 9b b8 bd e2 42 a5 3e
       0.05387932 -0.16555083 -0.0901402 0.3227759
0001f0 57 b7 f2 3e 38 8d be bb b4 88 8b 3e c6 06 9d 3d
       0.47405502 -0.0058151744 0.27252734 0.076673076
000200 30 60 da 3e ca a5 16 3e 78 f0 81 bd d1 1a d8 bd
       0.4265151 0.14711681 -0.06344694 -0.1055199
000210 eb 60 fc 3e 02 c1 6e be c4 a3 9c 3e 1c c6 1f be
       0.49292693 -0.23315814 0.30593693 -0.15602916
000220 bd 87 85 3e 4a 87 95 3e 77 7e ab 3e 75 10 9e 3e
       0.26080123 0.2920478 0.33494923 0.3087193
000230 14 d0 99 be ac 6b 93 be a6 6d 9e be df 7c c1 3d
       -0.30041564 -0.28793085 -0.3094303 0.094476454
000240 68 fc 06 3f 62 53 64 be 66 8b 3c 3e bc 6f c6 3e
       0.5272889 -0.22297433 0.18412551 0.38757122
000250 7f 27 d9 3e 26 3d 37 3e 4b c0 89 3e 31 df b3 3e
       0.42412946 0.1789442 0.2690452 0.3513122
000260 bd 3b 12 bd 91 80 c6 be 92 ff 57 bd 8e 13 1f 3d
       -0.035701502 -0.38769963 -0.052733965 0.03883701
000270 1b 04 e0 bd 1d 21 42 be e5 a0 c5 be 9f 76 a9 be
       -0.10938283 -0.18957944 -0.38599315 -0.33098313
000280 33 f5 14 be 63 b5 4c 3e c9 68 84 be 88 02 8d 3e
       -0.14546661 0.19991069 -0.25861195 0.27540994
000290 55 21 40 be e9 78 80 bd b6 8c 8f be 04 48 10 bd
       -0.18762715 -0.06273062 -0.2803704 -0.03522493
0002a0 9b de 8f be 33 b6 1a bf 84 80 3e be 53 73 95 be
       -0.28099522 -0.60434264 -0.18603712 -0.29189548
0002b0 20 30 fb 3e d9 97 0b be ce be 13 3e dd 38 ed 3d
       0.49060154 -0.13632144 0.14428255 0.115831114
0002c0 d1 66 d3 bd 67 70 02 3e 85 32 b3 bc 33 29 e4 3e
       -0.10322345 0.1273819 -0.021874676 0.44562683
0002d0 2c f4 73 bd 22 27 12 bf 80 a2 16 3c 0b 21 92 3e
       -0.059559032 -0.5709096 0.009194016 0.28540835
0002e0 a6 d0 68 3d 99 bb fc 3e 3e 75 f1 3e d1 41 b5 be
       0.056839608 0.49361876 0.4715976 -0.35401776
0002f0 3e b6 dd 3d c0 54 36 3e 02 7f 72 bd 67 e2 0d ba
       0.108257756 0.17805767 -0.059203155 -0.000541246
000300 f8 f9 5c 3d f1 64 10 be 5f 92 4a be dd f2 e1 3d
       0.053949326 -0.14101006 -0.19782399 0.110326506
000310 9d 8b 52 be a0 43 f2 bd 1a f1 99 3e aa 75 48 3d
       -0.2056107 -0.11829305 0.30066758 0.04894034
000320 90 1d 03 be 30 b0 02 be 05 ad 02 3e 56 56 5f be
       -0.12804246 -0.12762523 0.12761314 -0.21810278
000330 50 0e bf bd ee 92 64 3e 1b 6c a4 bd 25 bf 2c be
       -0.09328902 0.22321674 -0.08028432 -0.16869791
000340 ca 4d b9 3e f0 3e 06 be bd ac 9a bd a8 e5 cc bd
       0.3619216 -0.13109946 -0.075524785 -0.10004741
000350 eb e7 d9 bb 06 e0 91 bd 78 7a df 3d 0e da 42 be
       -0.006649961 -0.07122807 0.10912031 -0.19028494
000360 18 3f e4 3e 0b 3b b6 3d 41 45 a4 bc 08 3b b7 be
       0.44579387 0.0889798 -0.020052554 -0.35787225
000370 ee 64 af 3c 38 9f 3e 3e ae 04 5e be 2c ce 58 bd
       0.021410432 0.18615425 -0.21681473 -0.052930996
000380 b7 c4 d0 be 52 51 17 3c 88 e3 f6 bd a9 c1 10 be
       -0.40775082 0.009235697 -0.12055117 -0.14136375
000390 a4 63 85 3e c9 12 a5 bd c1 0e 35 be f9 c4 e5 be
       0.26052582 -0.080602236 -0.1768141 -0.4487684
0003a0 56 d7 fa be 52 d2 51 be d1 e1 9f bd 70 cd ec bd
       -0.48992413 -0.20490387 -0.07806743 -0.115626216
0003b0 54 e9 a8 3d 84 4b 45 3c 5a b6 48 3d 53 c0 5d 3e
       0.08247629 0.01204193 0.04900203 0.21655397
0003c0 40 e6 f3 bd 81 50 7c 3e 81 d3 40 be db f3 bc bc
       -0.11909151 0.24640085 -0.18830682 -0.023065498
0003d0 25 00 28 be c5 f1 9f 3d 45 88 cf bd 62 2c e5 be
       -0.16406305 0.07809786 -0.10133413 -0.44760424
0003e0 2c c3 47 be ea 2d 05 be be 57 83 3e 3f 12 d4 3d
       -0.19508046 -0.13005796 0.2565288 0.10355043
0003f0 4a 5e 9d bc 8c 8c b3 be b5 90 ae be 5b da 59 3e
       -0.01921 -0.35068166 -0.34094778 0.21274702

fc1.bias f4 [64]
000000 ce 9e 2b be 39 dc 85 bd fd eb d4 bd ec 02 1f be
       -0.16759798 -0.06536145 -0.10396574 -0.15528458
000010 37 7e 08 be 09 2e 18 3d 55 ac 34 be 4a 4b 90 bc
       -0.13329397 0.037153278 -0.17643864 -0.017614026
000020 27 b8 f5 bd d8 b4 c5 3d 67 4e 95 bb a6 d7 b7 bd
       -0.11998015 0.09653634 -0.0045564654 -0.089766786
000030 fd 26 99 be b7 69 1b be d5 e6 42 be 20 63 4f bd
       -0.29912558 -0.15177046 -0.19033368 -0.050631642
000040 62 f0 41 bd 62 a1 2b be 1a b8 19 be 4e 61 42 bd
       -0.047348388 -0.16760781 -0.15011635 -0.04745608
000050 fa 93 00 bd 20 c1 88 bb 46 b2 a0 bd 7a c2 12 be
       -0.03139112 -0.004173413 -0.07846503 -0.14332
000060 87 88 09 be 9c c2 52 be 43 ef 7b bd 0a e5 27 be
       -0.13430987 -0.2058205 -0.061507475 -0.16395965
000070 a9 4b f4 bd 89 0a 21 be bc c0 d3 bd 85 d5 6b 3d
       -0.119284935 -0.15726675 -0.103394955 0.057576675
000080 37 50 85 bd f0 8e 75 be 4e 9c d8 bd 92 7c 68 bd
       -0.065094404 -0.23980308 -0.10576688 -0.056759425
000090 6e b3 1f 3e fc de dd bd 69 22 25 be ff 84 5b be
       0.1559579 -0.108335465 -0.16126408 -0.21437453
0000a0 f1 23 bb bc 04 3a 8b be 44 8e 0d bd a3 43 73 be
       -0.022844287 -0.271927 -0.034559503 -0.2375627
0000b0 f2 13 fe bd d1 ef 1c be ed fc 5d bd 98 cb 6d be
       -0.12406148 -0.15325858 -0.054196287 -0.23222196
0000c0 fa 02 56 be 5b de 38 be b6 64 54 be 00 5a bc 3b
       -0.20899573 -0.18053572 -0.20741543 0.0057480335
0000d0 f5 47 37 3c 13 ab 0e be da 9c 1c be 96 ab 43 bb
       0.0111865895 -0.13932447 -0.15294209 -0.0029856912
0000e0 a9 8d c5 3d f8 cf 80 bd e6 80 23 be 20 90 de 3d
       0.0964616 -0.06289667 -0.1596714 0.108673334
0000f0 15 9e e8 bd db 54 70 bd 2c 4c c0 3b 40 93 8e 3d
       -0.11358277 -0.058674674 0.0058684554 0.069616795

rnn.weight_ih f4 [192, 64]
000000 07 ef 7d 3d 3e 47 f4 3d a6 76 09 be 32 e3 26 bd
       0.061995532 0.11927651 -0.13424167 -0.040744014
000010 fe d5 3f 3e 9e 44 e6 3e 49 0f 32 3d dd 9d 00 3e
       0.18733975 0.44974226 0.04347161 0.1256022
000020 d4 48 87 3e f8 e6 3e 3e 86 45 a7 3e 1d 9a 8e 3e
       0.2642275 0.18642795 0.3267023 0.27851954
000030 62 8f 2c bd d4 78 d2 3b 34 81 41 3e ff bb 8e 3e
       -0.042128928 0.0064230952 0.18896943 0.27877805
000040 0e 05 be 3e d7 12 02 3e bf 63 cc 3d ba 6b 98 3e
       0.3711323 0.127025 0.099799626 0.2976969
000050 01 05 3b 3e fb 7c be 3e f3 2f 84 3e 5b ed 9b 3d
       0.18263628 0.37204728 0.25817832 0.07613631
000060 d5 ab df 3e fb 97 a2 3d fd 46 85 3e b1 8c 96 3e
       0.43685785 0.07939144 0.26030722 0.29404214
000070 b9 29 07 3e a5 76 49 3e ee 48 08 3e 65 10 a1 3e
       0.1319951 0.19674166 0.1330907 0.3145782
000080 fd 63 15 3e aa 42 1d 3d c7 71 5e 3e 4c e7 33 3e
       0.14588924 0.038393654 0.2172309 0.17568702
000090 e5 ef c5 3d 7d a8 2b 3e 54 79 76 bc 7e db 42 3e
       0.09664897 0.16763492 -0.015043575 0.19029042
0000a0 43 3f 68 3e 86 b1 94 be 9a 88 90 3e 28 3f 26 3e
       0.22680382 -0.2904169 0.2822922 0.1623503
0000b0 bf 4e 15 3e 3d 23 96 3c 8b 9a 16 3e b6 49 16 3e
       0.1458082 0.01832735 0.14707391 0.14676556
0000c0 ae 5e b5 3d a0 36 c3 3e 0b c8 39 3e 68 47 49 3e
       0.08855949 0.38127613 0.18142717 0.19656146
0000d0 ce 42 39 3e ff 59 9c 3e bc c1 aa 3e 28 5d 5b 3e
       0.1809189 0.30537412 0.33350933 0.21422255
0000e0 0e db cf 3c e2 b9 ae 3d 59 6b d1 3e a2 0d c5 3d
       0.025373008 0.08531548 0.40902212 0.09621741
0000f0 d5 ee c9 bc 54 e1 56 3e b0 99 b6 bd c9 9d 96 3e
       -0.024650017 0.20984393 -0.08916032 0.29417256
000100 0f 56 b7 be 02 a5 90 be 11 56 43 be 59 bc be 3d
       -0.35807845 -0.2825089 -0.190758 0.09313268
000110 f5 5d d2 bc 50 d5 76 be ff fc 57 bd 73 4f 0e be
       -0.025679568 -0.2410481 -0.05273151 -0.13897495
000120 d8 07 37 be 16 81 36 be a2 87 f2 be f9 69 84 be
       -0.17874086 -0.1782268 -0.47369105 -0.258621
000130 67 dc 57 be 09 33 13 3d 25 70 c4 3d 11 57 57 bc
       -0.2108017 0.035937343 0.09591702 -0.013143317
000140 04 f5 42 be c7 15 85 be c8 5b 93 bc b3 de dc bd
       -0.19038779 -0.25993177 -0.0179881 -0.10784664
000150 6e 98 55 bc a1 da c8 be f7 ca 9f bd 46 dc 76 3d
       -0.01303683 -0.392293 -0.07802384 0.060268663
000160 bd 90 e9 be 07 a7 21 be 68 4c 30 be d1 3c 3a be
       -0.4561824 -0.15786372 -0.17216647 -0.18187262
000170 d2 94 6e be 9f c0 b7 be 78 99 a4 be 62 c8 4f be
       -0.23298958 -0.35889146 -0.32148337 -0.20291284
000180 9b 87 0d be f5 95 4a be b9 1b cd be 78 7a 2a 3e
       -0.1382126 -0.19783767 -0.40060213 0.1664828
000190 31 09 c4 be 39 bf 05 bf 02 8b 38 be 00 11 b5 3e
       -0.38288262 -0.5224491 -0.18021777 0.35364532
0001a0 76 ab 08 bf ab 96 7e be 5a a5 90 be 5f 2e 09 bf
       -0.5338663 -0.24862163 -0.28251153 -0.5358638
0001b0 1c bc e2 bd 6d 11 ad be cf 41 a0 be a0 1c 21 be
       -0.11071035 -0.33802357 -0.31300208 -0.15733576
0001c0 ae 89 a5 be 9c ae a0 be 23 a2 90 be 0f 72 b3 3d
       -0.32331604 -0.31383216 -0.282487 0.08761989
0001d0 0c 3d 63 be 7b 3a ad 3d ea 5d ba 3d f1 c8 a3 be
       -0.22191256 0.0845842 0.09099944 -0.31989244
0001e0 bd 67 5f be 0c 21 b4 bd 63 4c ab be 41 2c ab be
       -0.21816917 -0.08795366 -0.33456716 -0.334322
0001f0 ed 36 5e be 4d 9d 9b be 46 12 1f be cd 48 5a be
       -0.2170064 -0.30393448 -0.15534315 -0.21316834
000200 99 84 2d 3d 58 29 43 be 68 3e c2 bd 5c e2 88 bd
       0.042362783 -0.1905874 -0.09484559 -0.066837996
000210 1f 50 40 3e 7f 87 32 bd f4 94 94 be fe 77 ee 3d
       0.18780564 -0.04358625 -0.29019892 0.116439804
000220 25 99 b8 bc 11 dc bb be 31 eb 93 be 6b d6 7d be
       -0.022533963 -0.36691335 -0.28890374 -0.24788825
000230 89 bb 18 3e b5 3d 86 bd 1d 21 bd be 26 cd 3c be
       0.14915289 -0.065547384 -0.36939326 -0.18437633
000240 ec 7e 32 3d ac da cd bd 52 6b c5 be a2 48 a6 be
       0.043578073 -0.10051474 -0.3855844 -0.3247729
000250 39 87 2f be 01 9f 89 3e 16 ba 95 be cc 87 ad bd
       -0.17141427 0.26879123 -0.29243535 -0.08473167
000260 19 2c c9 3e 70 23 09 bd cd ed b4 3d 2b 6e 2a bf
       0.39291456 -0.03348106 0.088344194 -0.6657435
000270 e8 63 47 bd fc d8 f7 bd 1b aa 8c be 35 5f 60 3e
       -0.048679262 -0.12101933 -0.2747353 0.21911319
000280 50 52 98 bd 88 5e 8f be a0 59 23 bd fe 12 fc 3e
       -0.07437575 -0.2800181 -0.039880395 0.4923324
000290 d6 8b 6a be 84 d4 5b 3e 62 dd cd bd ef 5b 07 bf
       -0.22904906 0.21467787 -0.10051991 -0.52874655
0002a0 04 c0 2f bf 90 02 f4 bd 74 b4 7a be da 36 29 3e
       -0.6865237 -0.11914551 -0.244829 0.1652483
0002b0 c6 c2 85 be 3b d2 30 be c5 80 ba 3e bd 6d 7e be
       -0.26125163 -0.17267697 0.36426368 -0.2484655
0002c0 42 95 08 be f7 2f 09 bf 9d 85 4f bd b7 c0 30 bf
       -0.13338187 -0.53588814 -0.050664533 -0.6904406
0002d0 7a 64 11 3e 07 dd 7a be 7b 21 87 3d 9b 6e 19 3d
       0.14198485 -0.24498378 0.06598183 0.037458997
0002e0 ee 62 de bd 3a af 5f be 34 0e aa bc 11 56 6d be
       -0.10858713 -0.21844187 -0.020758726 -0.23177363
0002f0 e5 81 c5 ba 97 04 11 be 88 ee 8d be 6e af a6 3e
       -0.0015068619 -0.14161907 -0.27721047 0.32555717
000300 25 39 5d 3e 5f 68 57 bd ea c5 8b be 2e bd 45 3c
       0.2160383 -0.05258977 -0.27299434 0.01206903
000310 3c 05 4e 3e a7 05 de bb e7 30 bb 3d eb 25 90 3e
       0.20119184 -0.006775576 0.09140187 0.2815393
000320 f2 15 ca 3d a5 78 8f bd e9 66 5d be 73 6f c1 3d
       0.09867467 -0.07005433 -0.21621288 0.094450854
000330 9f 1e e7 bd 96 cb 67 bb 71 d3 a4 3d 56 2e 70 be
       -0.112851374 -0.003536915 0.08048142 -0.23455176
000340 6d 60 51 be 1d c2 60 bd 49 31 8c 3e 98 74 be 3d
       -0.2044694 -0.05487262 0.27381352 0.09299582
000350 2b 39 83 3e 7e d8 5c 3d 13 0d 9a 3d eb b5 77 3e
       0.25629553 0.0539174 0.07522025 0.2419049
000360 65 07 6f bd 3a 3a 34 3d 07 fd 56 3e e8 20 ae 3d
       -0.05835666 0.04400084 0.2099496 0.0850237
000370 aa 2f 02 bd b8 d2 2e be c8 06 68 3e e4 aa 0a 3d
       -0.031783737 -0.1707257 0.22658837 0.03385438
000380 15 a6 bc bd 33 d3 35 be da bf 5a 3d 37 ca 11 3d
       -0.09211365 -0.17756347 0.05340562 0.035593238
000390 df d2 74 be 57 6e 38 3e 7f c1 53 3a 62 f9 c1 bd
       -0.23908566 0.18010841 0.00080778444 -0.09471394
0003a0 84 6a 40 3e bc b4 52 bd c9 c7 f1 bd 02 26 9e 3b
       0.18790632 -0.051441893 -0.11805684 0.004826308
0003b0 4c 16 5f be 07 15 73 3e fe a9 0d be cd b0 5d be
       -0.2178585 0.2373849 -0.13834378 -0.21649475
0003c0 58 f1 90 bd de 20 6d 3e 14 df 6c 3e 70 4a 53 be
       -0.07077283 0.23157069 0.23131973 -0.20633864
0003d0 3e 25 71 be 3a 57 49 3b b9 46 c1 3e 13 c2 19 3e
       -0.23549363 0.0030722157 0.3774927 0.1501544
0003e0 04 24 3b 3d 02 ad c1 3c b9 da 2d bc 17 55 58 3e
       0.045688644 0.023642067 -0.01061123 0.21126209
0003f0 e6 0f 5d 3e 10 e7 da 3d 83 6e a3 3d 66 be 51 3e
       0.21588096 0.10688603 0.07980063 0.20482787

rnn.weight_hh f4 [192, 64]
000000 a5 fd e1 3d 9b 8c 46 be 27 56 e0 bd ee 11 a0 bd
       0.11034707 -0.19389574 -0.10953932 -0.0781592
000010 8a 87 27 be 10 a0 12 be 00 ff ff ba 24 2f 7c be
       -0.16360298 -0.14318871 -0.0019530952 -0.24627358
000020 24 27 66 3e 04 7e 65 3d 77 88 dc 3d b5 4d 09 3e
       0.22475868 0.05602838 0.10768216 0.13408549
000030 03 8e c2 bc 13 42 ae bd 9a 2f 59 3e d4 aa e0 bd
       -0.023749357 -0.085086964 0.21209565 -0.10970083
000040 a7 16 82 bd b8 e8 84 3e fe de 36 bc 79 54 89 bc
       -0.06351977 0.259588 -0.011161564 -0.016763913
000050 92 1f 8c 3a e3 f6 95 bd 74 6b ec bd 1f 14 f0 bc
       0.0010690561 -0.073224805 -0.115439326 -0.02930647
000060 e1 df ac bd 25 55 e8 bd c8 23 57 bd c2 0f 55 3e
       -0.08441139 -0.11344365 -0.052524358 0.20806792
000070 25 07 97 3d 61 ef 6b be ce 50 13 bd 83 3b 0b 3e
       0.073744096 -0.23040535 -0.035965733 0.1359692
000080 3d 6c 17 3e 5d d8 44 be 0e 99 08 3e 68 d4 2f be
       0.14787383 -0.19223161 0.13339636 -0.1717087
000090 ed 15 84 3c a5 ee a4 bd 14 94 8d 3a 75 76 04 3e
       0.016123736 -0.0805333 0.0010801577 0.12935813
0000a0 8d 15 6d 3e 80 35 dd 3c e2 5d a5 bc cb 91 30 3e
       0.23152752 0.02700305 -0.020186368 0.17243116
0000b0 b2 6f b7 3d de e0 5a bd 35 af f4 bc e2 9b 8d 3e
       0.08956851 -0.053437106 -0.029868701 0.27657992
0000c0 3c fc d9 bd 36 b4 70 be c5 02 ad 3d 0a d3 92 3c
       -0.10643813 -0.23506245 0.08447794 0.017922897
0000d0 35 65 11 3c 77 f7 fd bd 8a 45 f0 bc c4 22 1e 3e
       0.008874227 -0.12400716 -0.029330034 0.1544295
0000e0 ec 21 10 be 58 75 83 be 6a 8f 42 be 9b 7a 4c 3a
       -0.1407544 -0.25675464 -0.1900002 0.0007800252
0000f0 e4 c2 d8 3c 83 17 f0 bd 31 65 1d bc 70 b1 1b 3c
       0.026460119 -0.117232345 -0.009606645 0.009502754
000100 e1 fc 8f be fa 3e bb 3e bc 28 0b 3e 0c 76 6f 3e
       -0.2812262 0.36571485 0.13589758 0.23384875
000110 60 b0 c5 3e 7f a9 0b 3e 01 52 c6 3d e5 c9 f6 3d
       0.38611126 0.13638876 0.0968361 0.12050227
000120 92 72 85 be 7a 24 60 be a6 80 51 3e d9 2b bb bd
       -0.26063973 -0.21888915 0.20459232 -0.09139223
000130 44 3f b8 3d 16 2f 1b 3e bf 59 c6 3d 10 28 02 bd
       0.08996442 0.1515468 0.096850865 -0.031776488
000140 7a c7 05 be e5 06 40 3e 38 6c 62 3e e7 bd eb bc
       -0.13064376 0.1875263 0.22111595 -0.028777076
000150 39 92 51 3e 21 17 64 bd 56 8b 7b be e6 ab 29 bd
       0.20465936 -0.05568612 -0.24564871 -0.0414237
000160 b6 29 0f 3e b6 8c 92 3e c4 ee e6 bd c7 c2 36 3e
       0.13980755 0.2862298 -0.1127601 0.17847739
000170 72 65 17 bb 0c 51 5a 3e d5 ff 26 be 1a bd 3f be
       -0.0023101238 0.2131998 -0.1630853 -0.1872448
000180 5f 1d e1 bd 71 61 72 be 37 fb ac 3d 51 34 3c be
       -0.1099193 -0.23669983 0.08446353 -0.18379332
000190 22 46 17 3e 0f 3c 91 be 61 66 87 3e ec ca 10 3e
       0.14772847 -0.28366134 0.26445296 0.14139909
0001a0 6c 30 e0 bb 07 ba 81 be ad e0 4e 3e 07 27 3e be
       -0.00684171 -0.2533724 0.20202895 -0.18569575
0001b0 8b 8f bf 3d ee 6c 7b 3e 03 21 af 3d 94 f3 a7 bd
       0.093535505 0.24553272 0.08551218 -0.08200756
0001c0 83 5b 99 3e 64 fd e5 3c 14 62 5c be d6 d4 82 3e
       0.2995263 0.028074928 -0.21521789 0.25553006
0001d0 de db 36 be 6e d3 8e be f2 f8 52 be 09 8e 84 be
       -0.1785731 -0.27895683 -0.20602778 -0.25889614
0001e0 41 88 71 3d 87 ad 6b bd 3f 3c 6c 3e f1 dd 38 bc
       0.058967832 -0.057538535 0.23069857 -0.011283384
0001f0 f5 81 8c bd 17 e0 8f 3a db 85 0c be b1 36 26 bd
       -0.06860725 0.0010976818 -0.13722937 -0.0405795
000200 65 34 7b be 41 c8 56 be d0 3f b9 3d 77 05 6c 3e
       -0.24531706 -0.20974828 0.090453744 0.2304896
000210 c2 a6 b3 3d 9f d7 c0 3e 88 b9 5c be 9c cc 8a 3e
       0.08772041 0.37664506 -0.2155515 0.2710923
000220 de b0 88 be 34 e4 94 be 1f 4f 4a 3e e5 5a 88 be
       -0.2669744 -0.29080355 0.19756745 -0.26631847
000230 af ba d2 bd 14 73 70 3e 04 e1 85 be 18 29 11 be
       -0.10289513 0.23481399 -0.26148236 -0.14175832
000240 a7 44 82 3e 15 24 df 3d f5 09 88 be 6f 0a 9c bd
       0.25443003 0.10895554 -0.26570097 -0.076191776
000250 c1 23 03 3f 83 48 ba 3e 36 05 b6 be f8 dc 01 bf
       0.5122643 0.36383447 -0.3555085 -0.50727797
000260 7e 17 a2 3e c6 dc ec 3e 28 b0 85 3e a1 f3 85 3e
       0.31658548 0.46262187 0.2611096 0.26162437
000270 37 9c d6 be c3 17 15 be 16 84 77 bd 20 78 88 bd
       -0.41916057 -0.14559846 -0.0604287 -0.06663537
000280 c3 7b 73 be a7 2f 60 3a c0 f4 49 3c ea 90 73 3e
       -0.2377768 0.00085520226 0.012326419 0.23785749
000290 8b 96 47 3e 71 ac 7e be 75 fb b9 3e 11 98 af 3e
       0.19491021 -0.24870469 0.3632466 0.34295705
0002a0 18 93 ce bd ac f3 a4 be df f0 0a 3f dc 6a 5d 3e
       -0.1008665 -0.32217157 0.5427379 0.21622795
0002b0 12 63 11 3e f7 b7 73 3e b2 e9 0c 3e ad 6a b7 3d
       0.14197949 0.23800646 0.13761023 0.08955894
0002c0 74 14 05 3e 0e a0 fc 3d d5 4d e3 be 93 dc 97 3e
       0.12996083 0.123352155 -0.4439532 0.29660472
0002d0 7f f9 19 be 5a d1 9f be c4 4f cd be 44 ee d9 be
       -0.15036581 -0.3121441 -0.4009992 -0.42564595
0002e0 c1 c7 dc 3e c3 36 48 be b0 ef a5 3c 18 ab 8b 3e
       0.4312115 -0.1955214 0.020255893 0.27278972
0002f0 03 ae 4c 3e 3d 07 9d 3d 30 14 36 3e 90 e3 8c be
       0.19988255 0.07667396 0.17781138 -0.27517366
000300 ac 16 ba 3d 9a 17 74 be 09 5e ae 3e f0 95 8b 3d
       0.090863556 -0.23837128 0.34056118 0.06815708
000310 56 18 58 3e e0 d3 b8 bd 40 c8 a6 bc 67 06 2a 3d
       0.21103033 -0.09024787 -0.020359159 0.041510012
000320 ba d1 b9 bd 1d 48 aa bd 54 26 51 bc a7 3f 77 be
       -0.09073205 -0.08314536 -0.012765486 -0.24145375
000330 9e 75 e8 3d f8 22 0d 3d 86 05 1a be e5 30 3b 3d
       0.11350559 0.034457177 -0.1504117 0.045700926
000340 a4 bd a2 3e b8 b3 90 3e 60 26 52 be 0f 47 d8 bb
       0.3178531 0.28262115 -0.20522451 -0.0066002677
000350 0a 80 34 3e c9 de 69 3e fb 5d b1 bd 78 97 0e be
       0.17626968 0.22838892 -0.086605035 -0.13924968
000360 78 ee c6 bd a1 6d 2f be 22 4b 7c bd 7d c4 ad 3e
       -0.09713453 -0.17131664 -0.06159509 0.3393897
000370 73 51 2f bd 7f a7 8c be 2d dc a4 3d 13 45 a8 be
       -0.042802285 -0.2747154 0.08049808 -0.328652
000380 fa ad 68 be 62 27 ba 3e f2 55 93 3e 46 41 c6 3e
       -0.22722617 0.36358172 0.2877651 0.38721675
000390 1b 48 1a bd e6 c3 90 bc 80 d9 d3 bd ff d5 16 3e
       -0.03766642 -0.017671537 -0.10344219 0.1473007
0003a0 4d 3f 9d 3e 21 94 d5 bd d8 f3 a4 bc 3d 9a 8b 3d
       0.30712357 -0.10428644 -0.020135805 0.06816528
0003b0 41 c4 ef 3e eb 04 37 3d 52 4d 17 be 03 2b 8a 3e
       0.46829417 0.044682425 -0.14775589 0.2698594
0003c0 51 cf ea 3a 12 94 af 3e 38 34 92 be 2f ae aa 3e
       0.0017914568 0.34292656 -0.28555465 0.33336017
0003d0 0f 1c ae bd c8 8d 05 be 87 8b 3b be c6 b2 4b be
       -0.085014455 -0.13042367 -0.18314944 -0.19892415
0003e0 46 22 90 3d 79 8c cc be 90 fc 77 be 2b 22 25 3e
       0.07037787 -0.39950922 -0.24217439 0.16126315
0003f0 2c 38 bd 3d 1e 4b 34 be 25 02 dc 3d 2f 6b b3 be
       0.092392296 -0.1760678 0.107425965 -0.35042712

rnn.bias_ih f4 [192]
000000 45 e4 b7 3e 82 57 90 be 88 e5 c1 be 52 02 58 be
       0.35916343 -0.28191763 -0.3787043 -0.21094635
000010 42 5e 80 3e db a2 59 3d 3d 4d 27 be 7d 09 f9 be
       0.25071913 0.053133827 -0.16338058 -0.4864005
000020 36 50 e4 3e 59 61 87 3e 7b a0 19 bd 55 3f e2 bd
       0.44592446 0.26441458 -0.03750656 -0.11047236
000030 84 ce 28 be d3 74 c5 3d 68 ec c7 bc 50 60 13 be
       -0.1648503 0.09641423 -0.02440472 -0.14392209
000040 a3 50 2c 3c 10 70 80 3e fe 10 1b bd f6 34 4f 3e
       0.010517272 0.25085497 -0.037858002 0.20235047
000050 f2 13 35 bd bc 6c 08 be 3d 96 ec bd 36 59 6f 3b
       -0.044208474 -0.13322729 -0.11552093 0.003652168
000060 e2 92 01 3d 9a 18 10 be 64 0f c2 bc 0c 4b 35 3d
       0.03163422 -0.14071885 -0.02368898 0.044261023
000070 6d e7 07 bd 03 53 25 3e 53 67 28 3e e4 34 6d be
       -0.03317969 0.16144948 0.16445665 -0.23164707
000080 68 aa a4 bd cd 9e 7b 3c c9 09 46 3d a7 fc d3 bd
       -0.08040315 0.015357685 0.048349176 -0.10350924
000090 b1 b4 01 be f9 09 ae bc 70 95 63 bd 50 ae 16 3d
       -0.12666585 -0.02124499 -0.055562437 0.03678733
0000a0 85 92 0f 3d 33 32 66 3f 90 c9 46 3d 17 37 d9 bd
       0.03505184 0.8992035 0.04853207 -0.10606211
0000b0 b2 8d 85 bd a8 c3 af be 84 36 c1 be 09 ac a8 be
       -0.06521167 -0.3432896 -0.37736905 -0.32943752
0000c0 6f 60 60 3d 1e 64 28 3b f7 1d 99 3d 8c d9 73 3e
       0.054779466 0.002569444 0.074764185 0.23813456
0000d0 e3 6e 3d bc e4 c5 dd bd 3e 11 17 3e 95 46 d9 bd
       -0.011562082 -0.1082876 0.14752671 -0.106091656
0000e0 b2 ed c1 ba 30 c2 e6 3d 06 1e 27 3e a2 8e 78 be
       -0.001479557 0.11267507 0.16320047 -0.2427316
0000f0 04 a1 da bc 7d f2 ab be bf 54 6a be 13 df d3 be
       -0.026688106 -0.3358344 -0.2288389 -0.4138113
000100 c1 96 3d bf f3 82 29 3f ca de 48 3f b1 51 dd 3e
       -0.7405816 0.6621544 0.7846495 0.43226388
000110 27 b4 74 3e c8 a8 90 be 30 29 94 3e 30 8c 2d 3f
       0.23896848 -0.2825377 0.28937674 0.67792034
000120 76 6c 00 c0 87 81 b1 bd 72 b6 20 3e 9e 3e e8 3e
       -2.00662 -0.086672835 0.15694597 0.45360273
000130 6d f7 be 3e 09 8e 2e bf b9 d2 58 3e 86 2d 7a 3e
       0.37298146 -0.6818548 0.21174134 0.24431428
000140 77 35 c2 3e b8 fb 24 3e a4 09 d0 3e 8a f8 7a bf
       0.37931415 0.16111648 0.40632355 -0.9803549
000150 a3 1b 05 3f 9e 27 15 3f 98 a3 19 3f 4c bc 29 3f
       0.51995295 0.58263576 0.6001525 0.66302943
000160 86 dd 66 be 0f 43 29 3e f5 ae f9 3d 06 a4 9f be
       -0.22545442 0.16529487 0.121915735 -0.31179827
000170 ff d1 c3 bc 32 04 d7 3e 67 c4 bc bd bb 35 25 3f
       -0.023903845 0.41995388 -0.09217148 0.6453511
000180 22 9e c0 3e 77 0b e4 3a 5a 34 dd be e9 65 fa 3d
       0.37620646 0.0017398436 -0.43204004 0.12226469
000190 84 c5 12 3f 35 2a a8 be 82 cf 91 be bc 0d fb be
       0.57332635 -0.328447 -0.28478628 -0.49033916
0001a0 dc 28 7f be 46 6b 18 c0 bd 4c 83 be 1f a4 e3 bd
       -0.2491793 -2.3815475 -0.25644484 -0.11115288
0001b0 3c 93 90 be 58 ea 0d 3f 01 4b ae 3d 68 c9 9e 3e
       -0.2823733 0.55435705 0.085103996 0.31013036
0001c0 08 e7 91 3e 72 2b f7 3e a4 cd 07 3f c6 37 cf 3e
       0.28496575 0.48275334 0.5304816 0.4047224
0001d0 b4 ae 4e bd 67 f9 ae 3e 7b 68 1c 3f 57 54 2b 3f
       -0.05045958 0.34174654 0.61096925 0.6692557
0001e0 3c 6f 1d 3f 4d ec 0c bf 1a bf b0 be 8c b6 0d 3e
       0.61497855 -0.55048066 -0.345208 0.13839167
0001f0 d6 b2 0d 3f 9a 1f 28 3f ba 1c 83 3e 47 50 db 3e
       0.55351007 0.6567322 0.25607854 0.42834684
000200 a9 e4 21 3f de 67 a2 bd 9c a5 82 bd 2d 80 9f bc
       0.6323953 -0.07929967 -0.06379244 -0.019470299
000210 86 12 67 be 41 b7 8b be 23 64 83 bc e3 7c 80 bd
       -0.2256566 -0.2728825 -0.01603896 -0.0627382
000220 66 c3 4a 3f e5 ca aa 3e bf a5 c1 3d 02 c1 29 be
       0.79204404 0.3335792 0.09455442 -0.16577533
000230 16 d4 7d 3e 3c 6c 51 be 7f 9c da bc 31 35 2c 3e
       0.24787936 -0.20451444 -0.026685951 0.16817166
000240 fb 51 09 3c a6 2b df bd 62 07 f9 3d 8c aa 8b 3e
       0.008381362 -0.10896997 0.12159611 0.27278554
000250 46 37 e0 3d dc 6e 6f 3c 91 11 81 be 4a 00 77 be
       0.109480426 0.014613833 -0.25208715 -0.24121204
000260 17 93 b2 bd f2 78 1a be 6e 22 2b 3e 65 27 33 3e
       -0.087194614 -0.150852 0.16712353 0.17495497
000270 ab 01 ac 3e fb 3f b2 bd 53 ef e0 3d 8e 22 66 bc
       0.33595023 -0.087036096 0.109831475 -0.014046324
000280 1a df c9 bd 17 ff 3a 3e e1 17 8a 3e 08 48 3d 3d
       -0.09857006 0.18261372 0.26971343 0.046211272
000290 1e 19 d6 3d a4 c7 aa 3e 60 73 46 be 37 cf 85 bd
       0.104540095 0.3335544 -0.1937995 -0.06533664
0002a0 97 75 67 3e 98 4c ad 3f 88 ac f1 bd 49 82 fc bd
       0.2260345 1.3539 -0.11800486 -0.123295374
0002b0 bc 2a 40 3e 77 98 ab bd 51 ce fa bd 97 0f 9a bd
       0.18766302 -0.0837869 -0.12246383 -0.07522505
0002c0 5d ec 8b be a0 62 3d be a7 37 ef bd 87 80 aa be
       -0.27328768 -0.18494654 -0.11680537 -0.33301184
0002d0 77 25 96 3e e0 fa 3a 3e 92 16 b2 bd 3b 97 d9 bc
       0.29325458 0.18259764 -0.08695711 -0.02656137
0002e0 8b 00 49 3e 3f e7 06 3e ff c6 83 be 6c 9e eb bd
       0.19629113 0.13174151 -0.2573776 -0.11504826
0002f0 e2 a2 47 3e b2 52 ca 3c b8 de 75 3d 58 ce 30 bd
       0.19495729 0.024697635 0.060026854 -0.043165535

rnn.bias_hh f4 [192]
000000 6c 11 8a 3e f1 07 a7 bd 36 45 6e be 1c 6e 21 be
       0.26966417 -0.081558116 -0.2326859 -0.1576466
000010 c0 8e 83 3e cd 17 3d 3e 94 40 cc be 5e 6f f5 be
       0.25694847 0.1846611 -0.3989302 -0.4793653
000020 ee e3 c6 3e 75 f8 46 3e b5 df 43 3d fd ac 11 be
       0.38845772 0.19430716 0.047820766 -0.14226146
000030 c6 c7 14 be 02 b8 43 3e 40 28 03 bd 83 ca 3d be
       -0.14529333 0.19113162 -0.032020807 -0.18534283
000040 c8 e0 ee 3c fd b7 05 3e 55 03 08 be 27 8d 1e 3d
       0.029159918 0.13058467 -0.13282521 0.038708832
000050 28 fe bf bc bb a0 81 be db c0 5f bd eb 52 b7 ba
       -0.02343662 -0.2531794 -0.05462728 -0.0013986503
000060 ca 1b 34 bd be 3e 33 be de 6d 3d bd 14 38 cc bc
       -0.043971814 -0.17504403 -0.046247356 -0.024929084
000070 48 a4 41 3e b5 39 5f 3d ad 80 e8 3c 9e fc 82 be
       0.18910325 0.054498393 0.02838167 -0.25583357
000080 9a 3f b0 bd 06 2d 7b 3b ca a3 cb bb 4f 12 a7 bb
       -0.08605881 0.0038326397 -0.0062145935 -0.005098618
000090 64 47 33 be 4f 32 26 3c 67 50 8c 3d 58 62 ed 3d
       -0.17507702 0.01014383 0.06851273 0.11591023
0000a0 44 ca a6 3d e3 4c 68 3f 6f 8c 61 3d 0d 89 61 be
       0.08144048 0.9074232 0.05506557 -0.22024937
0000b0 d5 fb de bc bc 48 b6 be 71 9a fc be 80 e6 3b be
       -0.027219692 -0.35602367 -0.4933658 -0.18349648
0000c0 53 cb 90 bd 0d e4 1b be f3 c5 b8 bd d4 f8 4a 3e
       -0.07070031 -0.15223713 -0.09022131 0.19821483
0000d0 33 09 14 3d 47 c2 cf bd e3 13 f2 3d 5e 5c 18 bc
       0.036141586 -0.10144477 0.11820199 -0.009299366
0000e0 31 d5 1a bd 2e 74 2e 3e 06 c5 fa 3c df 26 22 be
       -0.03780097 0.17036507 0.030611526 -0.1583514
0000f0 cf d9 5b be c9 e6 86 be 31 d1 62 be 9f 9f 02 bf
       -0.21469806 -0.2634795 -0.22150113 -0.5102481
000100 fc be 35 bf c4 8d 27 3f 4e 01 33 3f fd b3 fb 3e
       -0.70994544 0.6545069 0.69923866 0.49160758
000110 25 f7 dc 3e 9c 24 51 be 36 8d db 3e ff 21 0d 3f
       0.43157306 -0.20424122 0.42881173 0.5513
000120 47 74 08 c0 83 99 79 be 12 65 82 3e 35 f9 f9 3e
       -2.132097 -0.24374966 0.25467736 0.48822942
000130 ca 40 01 3f 96 92 2c bf 17 59 58 3e 67 5d 9a 3e
       0.50489485 -0.6741117 0.21127735 0.30149385
000140 c0 d8 d6 3e e0 c6 af 3e fc bf 8e 3e 98 e3 7d bf
       0.41962242 0.34331417 0.27880847 -0.99175406
000150 3b b2 15 3f a6 c8 05 3f a0 15 1f 3f 00 e6 09 3f
       0.58475083 0.5225929 0.6214237 0.5386658
000160 8f bf a8 be 17 42 73 3e 09 75 1d 3d 46 e3 69 be
       -0.32958648 0.2375568 0.03844169 -0.22840604
000170 97 9c c3 3b 06 70 a3 3e 93 7e 85 bd 82 c0 29 3f
       0.0059695947 0.31921405 -0.06518283 0.6630937
000180 8d 7b e4 3e ec f0 d4 3d ea fc 99 be 91 39 8c 3e
       0.44625512 0.10397515 -0.3007577 0.2738767
000190 51 ab f2 3e cd 85 84 be 79 35 a2 be f3 7b 01 bf
       0.4739633 -0.25883332 -0.3168142 -0.50579756
0001a0 63 2d 85 be 8e 94 0e c0 06 97 61 be 32 04 e9 bd
       -0.2601119 -2.227817 -0.22030267 -0.11377753
0001b0 2e f0 21 be a9 40 35 3f 2b e6 67 3d 78 0b b0 3e
       -0.15814278 0.7080179 0.05661599 0.3438375
0001c0 fe a0 37 3e f1 50 02 3f 2b ed 0f 3f 4b da c5 3e
       0.17932507 0.50904757 0.56221265 0.38643107
0001d0 ee 5c 12 3d 7f 91 d5 3e 41 27 1f 3f 86 6c 09 3f
       0.035733156 0.41712567 0.6216927 0.5368122
0001e0 82 37 0e 3f ef 62 1b bf 4d c2 9a be 1f 96 56 3e
       0.5555345 -0.60697836 -0.30226365 0.20955704
0001f0 4a 90 af 3e 97 38 28 3f 82 b7 38 3e 6c 89 01 3f
       0.3428977 0.6571135 0.18038753 0.50600314
000200 67 14 27 3f f3 a5 94 3d 85 42 bc bd be 76 c9 bd
       0.65265507 0.07258215 -0.09192375 -0.098371014
000210 35 12 f9 be 8f 99 8e be 64 e4 ca 3c 44 11 54 3c
       -0.48646703 -0.2785153 0.024767108 0.01294357
000220 43 1e 52 3f 00 9d 48 3f 69 c5 1e 3e 07 c0 1c be
       0.82077426 0.78364563 0.15504993 -0.15307628
000230 4a 0b 70 3e af 63 46 bf 35 24 ae 3c 7b a7 89 3e
       0.23441806 -0.77495855 0.0212575 0.2688559
000240 68 78 8d 3e 2a 8b 95 bd 97 24 bf 3c 44 45 ab 3e
       0.27630925 -0.07301934 0.023332877 0.33451283
000250 a1 87 50 3d e0 e5 59 3d 7f 04 e3 bc 76 0f 55 be
       0.050910596 0.05319774 -0.027712105 -0.20806679
000260 a6 f8 41 be 89 db 4c be 64 e3 19 3d 42 c6 b0 3e
       -0.18942508 -0.20005621 0.037570372 0.3452626
000270 f7 97 84 3e dc 88 31 3e e9 c2 c5 3e 3a 59 43 3c
       0.2589719 0.17337364 0.38625267 0.011923129
000280 4f 22 5a bd 0e d0 41 3e ac 42 da 3d bc da a3 3d
       -0.053255375 0.18927023 0.10657248 0.08000705
000290 30 58 2d 3e 9a 31 d0 3e df 4d dd be d0 7b a4 be
       0.16928172 0.40662843 -0.43223473 -0.3212571
0002a0 93 b4 71 3e 91 c2 b0 3f 46 4b 5f be 2d b0 95 bd
       0.2360404 1.3809377 -0.21806058 -0.073089935
0002b0 c5 de 6c 3d 7d 6f 09 bd 00 72 b9 3d d8 d2 cd 3d
       0.057829637 -0.03355359 0.09054947 0.10049981
0002c0 42 63 43 be be 35 86 be 53 82 0a be 14 78 9f be
       -0.19080833 -0.26212877 -0.13526277 -0.311463
0002d0 14 e8 b2 3e 0d 6c 79 3e 19 ee 0f be 57 6f 06 bd
       0.34942687 0.24357624 -0.14055671 -0.032821026
0002e0 cc 71 74 3d 1b 49 11 3f c0 65 66 bd e6 77 89 be
       0.059678838 0.56752175 -0.05624938 -0.26849288
0002f0 6c 17 9d 3e 07 32 cb bc 5e 2c 43 3e 4c 19 c8 bd
       0.30681932 -0.024804128 0.19059893 -0.0977045

fc2.weight f4 [1, 64]
000000 41 94 82 3e e2 b9 7a bd 00 aa a8 3d ec 5d 16 bd
       0.25503734 -0.061212428 0.0823555 -0.036710665
000010 ea 0a 36 bd 5f 70 eb bd d7 e2 d6 bd 91 8b de 3d
       -0.044444002 -0.114960425 -0.10492485 0.10866464
000020 d4 c5 3a 3e f9 77 08 3e 31 b6 94 3d e3 95 4b be
       0.18239528 0.13327016 0.07261313 -0.19881396
000030 7e 1c 5a bc d2 8c e2 bd 24 01 67 be b1 f0 f8 3d
       -0.013312457 -0.110620156 -0.22559029 0.12155283
000040 c5 d0 63 3e b2 49 b0 bc dc 04 2a bd d8 43 01 3e
       0.22247608 -0.021519516 -0.04150854 0.12623537
000050 dc eb 64 3e 54 0c fa 3d ac 7f c7 bd 5d d6 28 be
       0.22355598 0.12209383 -0.09741148 -0.16488023
000060 c4 06 ca bd b2 4c ac bd 57 20 91 3d c2 25 3a 3e
       -0.09864572 -0.08413066 0.070862465 0.18178466
000070 80 6c 9d 3d d9 f2 da 3d fe 98 1c 3e bd 9c 2f 3b
       0.0768671 0.10690851 0.15292737 0.0026796304
000080 a4 bc 55 3c 2e 6f 37 3e 71 bc 2f 3e 99 51 64 3e
       0.013045464 0.17913505 0.17161728 0.22296752
000090 b3 b3 87 3d de 27 dc 3d 00 ae 32 be 26 c2 0b be
       0.06626072 0.107497916 -0.17449188 -0.1364828
0000a0 ad 6f 31 3e 50 99 50 3e 10 7e cf 3d c7 a8 c8 3d
       0.17327757 0.20370984 0.101314664 0.09797817
0000b0 e5 99 04 3e 4d ef fa bc 43 a7 38 bd 2a f3 bd 3d
       0.12949331 -0.030631686 -0.04508139 0.092748955
0000c0 fc 33 9a bd 82 37 36 3d 78 e8 03 be b7 89 4e 3d
       -0.075294465 0.04448653 -0.12881649 0.050424304
0000d0 35 88 c1 3d e5 ed 51 3d 00 4e 71 be d0 b3 26 be
       0.094498076 0.051252265 -0.23564911 -0.1627953
0000e0 c9 cd 4f 3e cb 5c d1 bd ce fd 24 be 91 02 21 3d
       0.20293345 -0.10222777 -0.16112444 0.03930909
0000f0 1b 5b 05 3e d7 58 0a be 4a d9 4d 3d 2b a8 8a bd
       0.13023035 -0.13510452 0.05025605 -0.06770357
