model_ppo_2cv_lot/mappo/3m/4_critic_params.pkl (torch, 126209 bytes, 11 tensors)

cv.weight f4 [8, 3, 3, 3]
00000000: b0f3 d7bb 754d 243e 7c49 65bb da91 c5be
00000010: 370e 27bf 8332 60bf b99d 033d 0f0a 143e
00000020: 8e6f 4d3d 23e0 cd3d 3061 e93b cdba 183d
00000030: 887e 403e 8ebc 3d3e d158 2a3e c970 3b3e
00000040: ae56 023d 80bf eb3d 0adc 5b3e 2657 9a3e
00000050: b312 c03e 7af0 f23e 4f20 293e 7e2b 173f
00000060: 399f 673e 52a5 853e 1213 d33e fd1c 9b3c
00000070: 3eaa 55bf 3f40 c4ba 76c8 ea3d efcf 57bf
00000080: 662a 423e c066 7d3c 63cf 36bf f39c e3bc
00000090: 01bc 4f3e 28c6 683e f3f4 b13d 0e57 973d
000000a0: b2ab 473e ea5e 2bbd 216b ff3d e063 293e
000000b0: 8441 47bd 6626 d13e 72e3 b53e 75df 883e
000000c0: d2ed f13d 27e0 2e3c 6349 123e fd5f 6c3e
000000d0: 66e3 ce3e 6a17 863e 730c 0abd 5a04 063e
000000e0: 955e 8e3d 845c 96bd fe74 88bd bfdd 143e
000000f0: 35e1 f4bd a33d f4bc 6f8c 61bc b641 3cbf
00000100: 33c0 a4be dbb8 11bf 99c8 39bf f125 383e
00000110: 3e50 35bf f098 38bf 51b5 01bf d0c6 33bf
00000120: a9a5 d43d 0c44 083f ee3a 153f 1674 6d3e
00000130: 5f85 1d3f d342 863e 543a 693d bfb4 4c3e
00000140: 9c83 9c3d 3f9b 663d 6980 013e 4af6 e33c
00000150: bee6 6f3e 1625 183e 2fa5 033e 6e5d 1b3e
00000160: 8835 4a3e cfba fd3c 46a7 c53c 86d5 6f3d
00000170: 3916 7b3d 4dfd 253d 0f18 893c 5cdf 013d
00000180: b8fd 3f3d af05 013d 8cd0 1d3d 775e d9bc
00000190: 9106 abbd 855d 6f3d 7269 c9be 2611 45be
000001a0: 542d d13c baf7 34bb f9a1 71bd 719b 903d
000001b0: f7c6 86bd bf4f debd c390 14be a831 cbbd
000001c0: 5c28 66bd d688 4ebe 7640 d63c edf2 0cbd
000001d0: 6933 b9bb 0f15 ca3e 4cf9 d63e c63e b63e
000001e0: f9af d63e fda4 a8be b496 e13e 9e07 8a3e
000001f0: dfb1 e23e 36dc b23e 230b 503e 939d d23e
00000200: ec4c 853e 7065 943e 741e 863f ea29 ed3e
00000210: bc14 7bbe 500b 5ebd b84b 36be 7864 e1bd
00000220: 3c7d 06bc 7b04 ee3c 90b8 dbbd 3359 9c3d
00000230: aedd 3b3d 2633 0cbf a9c7 dbbd a613 7ebd
00000240: e6ff 0dbe 54df 623d 9019 a83d 77e7 cb3e
00000250: 970d 5d3d 2aa7 183e 7228 f53d 2e62 993e
00000260: 173c f83e 2e26 d43e 838d 263e 4c59 8e3d
00000270: 1f39 043f b988 c03e 04d8 52bd 9635 b33e
00000280: d9f8 f33e 3589 8d3e d66e b93d 56ef e03b
00000290: a91d d23d 7bac ce3b c6a0 9c3e b0b3 f2bd
000002a0: dd65 c03d 0b53 4fbe 191a 523e dd61 e73e
000002b0: 2dce 513e 1d1a 843d 69d5 9d3e 2635 1d3e
000002c0: b709 d03d 0a58 db3d 316d 993e 5d38 e53d
000002d0: d5bf 073d 95d5 2b3d b804 5b3d 53c3 c73d
000002e0: 6bb3 5fbe da68 423d 3bb9 29bc 093d c23c
000002f0: 073d b6b9 36f8 003d 2523 63bc ad40 83ba
00000300: 0e35 04ba 2065 38bb d8e9 99bd 520a 283b
00000310: c3d9 32bd 4672 56bc cc6a 34be 5d92 bbbe
00000320: 5f52 a6be fbbd 85be 7b4f 5b3e 8b7e 9abe
00000330: d6fd 60be b574 84be 6bb9 a9be 39a8 9d3e
00000340: 5ea2 103f b188 563e cc5b fe3e 9318 6a3f
00000350: 513c 2b3f 776e ed3e 3a2a 3a3f e247 d93e
-0.006590329 0.16045173 -0.0034986427 -0.38587838 -0.65256065 -0.87577075 0.032132838 0.14456962
0.050155215 0.10052516 0.0071221814 0.037287522 0.18798268 0.18528959 0.16635443 0.18304743
0.031820945 0.11511135 0.21470657 0.30144614 0.37514266 0.47449094 0.16516231 0.5905074
0.22619332 0.26102692 0.41225487 0.018934721 -0.83462894 -0.001497276 0.11464016 -0.84301656
0.18961486 0.015466392 -0.71410197 -0.0277848 0.20286562 0.2273184 0.086892985 0.07389651
0.1949909 -0.041838564 0.12471605 0.16542006 -0.048646465 0.40849608 0.3552509 0.26732984
0.11812939 0.010673559 0.14285807 0.23083492 0.40407866 0.2618974 -0.03370328 0.13087597
0.06951634 -0.07341865 -0.066629395 0.14537714 -0.11957017 -0.029814547 -0.013766392 -0.73537767
-0.32177886 -0.5692269 -0.7257171 0.17983223 -0.70825565 -0.72108364 -0.5066729 -0.7022524
0.1038316 0.5322883 0.58293045 0.23188815 0.61531633 0.26222858 0.05694039 0.19990824
0.0764229 0.056300398 0.12646641 0.0278274 0.23427865 0.14857897 0.12855981 0.1517236
0.19746983 0.030972866 0.024127614 0.05855324 0.06130049 0.04052477 0.016735105 0.031707153
0.046872824 0.03149956 0.038528964 -0.026534302 -0.08350862 0.058438797 -0.3933826 -0.19244823
0.02553431 -0.0027613477 -0.05899236 0.07060898 -0.06580918 -0.10855054 -0.14508347 -0.099215806
-0.056190833 -0.20169386 0.026153784 -0.03441136 -0.0056518805 0.3946919 0.41987073 0.35594767
0.4193113 -0.32938376 0.4406029 0.26958936 0.4427633 0.34933633 0.20316748 0.41135845
0.2603525 0.2898364 1.0478044 0.4632104 -0.24519628 -0.054210007 -0.17802322 -0.11005491
-0.008208569 0.02905487 -0.10728562 0.07634201 0.045865707 -0.54765546 -0.107314415 -0.062030457
-0.13867149 0.055388764 0.08208001 0.3982503 0.05396804 0.14907518 0.11970605 0.29957718
0.48483345 0.4143538 0.1626492 0.06950626 0.5164966 0.3760431 -0.05147554 0.3500182
0.47650793 0.27643743 0.090543434 0.0068644686 0.102595635 0.0063071824 0.3059141 -0.11850679
0.09394429 -0.20246522 0.20517768 0.4519185 0.20488806 0.06450293 0.30826882 0.15352306
0.10158103 0.107101515 0.2996612 0.11192391 0.03314193 0.041951735 0.053471297 0.09754052
-0.21845786 0.047463275 -0.010359104 0.023710744 -0.00034759214 0.031486712 -0.01386336 -0.0010013782
-0.0005043306 -0.0028136447 -0.07515305 0.0025640917 -0.043664705 -0.013088768 -0.17618865 -0.36635104
-0.3248472 -0.26121506 0.21417038 -0.3017467 -0.2197183 -0.2587029 -0.33149275 0.30792406
0.5649775 0.20950581 0.4967941 0.9144375 0.6688891 0.4637334 0.7272068 0.42437655

cv.bias f4 [8]
00000000: bc96 4cbe d973 01be 781d 8dbe ce51 a0be
00000010: 6ece 753d 8279 8ebd 67fc d4be 6278 173d
-0.19979376 -0.12641849 -0.27561545 -0.31312412 0.06001132 -0.069567695 -0.41598818 0.03698004

cv2.weight f4 [16, 8, 3, 3]
00000000: 94a3 99be 2e8f 16bd 8d3d f93d a249 343d
00000010: 236a 4cbe 9373 193d b2e0 ce3d 7946 733e
00000020: 7ce0 083e 222d 0b3e 55b6 8b3d 6f37 1bbe
00000030: b24d 42bc c16e 91bd 2ece 113e a2fa 81be
00000040: 67fe 423d c26e 96bd fe80 7c3e 3182 9abd
00000050: 277c 0c3e 74e8 3fbd 01c3 d5bd 0424 d2bc
00000060: 53b7 153c 5800 89be 9d46 e5bd 8381 923d
00000070: 26f6 243d 908d cebd 12e4 c93c fb55 2e3d
00000080: f21e 3fbe 968c d23d a10b 773e 38dd 0fbe
00000090: 2a2a 293f 17d7 593e f86d afbd a33e 883e
000000a0: 414d ac3d f6b0 75be 8b5a 103e 208d 9a3d
000000b0: 960a 0dbf 4656 993e ee90 b5bd 6cc3 bc3c
000000c0: 3834 d33d 7031 ebbd d63b 9e3c 1177 9ebd
000000d0: 12aa cebe 9a0d 88be 68d3 6abd 5d19 c8bd
000000e0: 9c48 a43d 17fe 6dbd 89fa 9cbc 3139 dabd
000000f0: b961 4abe 65bd 4ebe 22ae 773c a308 043e
00000100: 209c c83d c249 3a3a ab36 de3d 6d0f 583e
00000110: b92e 62be d0ed 89bd 85bd a13e bca2 e83c
00000120: e4d4 283e 9e07 073f 2b06 a73e 1c60 6bbd
00000130: b46f 0d3e d7fa 0d3d 20f2 9d3d 0440 7ebe
00000140: 4ac1 76bd f835 bcbd 3dd3 b83e cb74 e33d
00000150: bb6e bb3c f5cd f63e 2054 0cbe 0cf8 623e
00000160: adbb ad3e ebe9 0d3e e38c 3cbe dbcf 28bd
00000170: 13d6 6a3b d379 a2bd 1e39 2fbe b34a 42be
00000180: ea10 25be 1528 e0bc adf2 c6bc 1cb0 a2be
00000190: 94f8 d6be 0d43 82be 2560 05be 93a9 c1bd
000001a0: 1f4a 82bd 027a 4cbe c1b1 ab3d 7a63 a1be
000001b0: 359b 243d 0d04 233e d76d 773b 5040 803e
000001c0: d5a5 6d3e ffda 4a3e 06c4 903d f546 c0bd
000001d0: 0707 15be 1733 8d3e ca56 2cbe 1404 84bd
000001e0: a24d 413e 4199 20be ea2a 23bd 11d9 ab3e
000001f0: 6e2c 3ebe aeb7 9a3b dbc3 a2bd 0645 29bf
00000200: 0481 13be 8238 54be 4f30 b5be 9202 ebbd
00000210: 5a7c 3d3e 6ef3 babc c462 0d3e f644 41be
00000220: f63c 93be 15f8 8bbe 1002 fa3c b0e5 9cbe
00000230: 07dd e3be a15a 49bd a8e2 7dbe 08e6 c7bd
00000240: eff3 563e 2eee 5bbe dae2 cfbd 0d67 373e
00000250: 0871 463e 969f e63b 17af a33d 72bc c63e
00000260: e0ce 243d ed45 0f3e 38f1 203e 78fd a6bd
00000270: a6c3 4c3e 6f1b b93e a8d2 343d c4e2 2c3e
00000280: ac53 9a3e e083 473e b618 8abe e529 463e
00000290: 1254 4bbe 8221 7f3d 513d 9b3e fff7 6e3b
000002a0: 3fe2 25be 2f18 ea3d ac85 293e 1c30 a1be
000002b0: 5329 7dbd 151a 16be 338e b63d 4c92 c1bd
000002c0: dae6 1fbe 69c6 ebbd 2c0b d4be 3dc4 84be
000002d0: 5674 3bbd d971 b4bd 2262 443e 055e 743e
000002e0: 1c8a c53b 26a2 283e e84c 083e 6bbe 5f3e
000002f0: ad58 1a3e 9d65 e73d bb5b 123e 9362 07be
00000300: b3b3 b43d e752 103e 5fb7 8d3e eb91 8f3d
00000310: eedd 6f3e 1449 713e a3b1 5e3d 5d63 3abe
00000320: 6dc1 843c 962e 4d3c 5d6c 93be 8606 81be
00000330: 9244 973d 70da 0fbf f96c 26be 9dcc 1e3d
00000340: b225 c43d 138f e6bd ae7f b03e 6fe4 543e
00000350: 61d7 f93d cbc6 813e 74e4 913e 74ff 893e
00000360: ff8f 8b3d 238f bd3e 4648 53bd c040 5ebd
00000370: ed45 29bd 9d93 dfbd a911 76be 8897 a5bd
00000380: ec52 9a3e 674c 86bd 6af7 9ebe 0c27 9d3d
00000390: cc62 66bd e853 73bb 0e80 113f 61bb 37be
000003a0: e143 943e 9bcf 8abd 5f57 7b3b 5fb0 03be
000003b0: 7294 003f ee98 12be c2ae 39bd ba9d 15bd
000003c0: 7df9 1e3d 6e45 2f3e 4a6a 133e 57da c3bd
000003d0: f7f3 b2bd c086 80be c63f d53d bf80 eebd
000003e0: beb1 86be 9ca0 093e b803 2a3e 9a32 75bd
000003f0: e78f cbbe 5e5c 6fbe 5a0c 74be fb6e 4c3e
-0.30007613 -0.03675764 0.12169943 0.044015534 -0.19962363 0.037463736 0.10101451 0.23757352
0.13366884 0.13591436 0.068218865 -0.15157865 -0.011859344 -0.07101203 0.14238808 -0.2538653
0.0476059 -0.07345344 0.24658582 -0.07544363 0.13719235 -0.046852544 -0.10437585 -0.02565194
0.009137946 -0.26758075 -0.11195109 0.07153609 0.040273808 -0.10085595 0.024644885 0.042562466
-0.18664148 0.10280721 0.2412553 -0.14049232 0.6607996 0.21273457 -0.08565897 0.26610288
0.084131725 -0.23993286 0.1409704 0.07546449 -0.5509428 0.29948634 -0.08865534 0.023042403
0.10312694 -0.11484039 0.019315641 -0.07737554 -0.40364128 -0.26572877 -0.05733052 -0.09770463
0.08021662 -0.058103647 -0.019162433 -0.1065544 -0.1976384 -0.20189436 0.0151172 0.1289392
0.097954035 0.00071063277 0.10850271 0.21099634 -0.22088136 -0.06734812 0.31589904 0.02839791
0.16487461 0.52746 0.32621893 -0.057464704 0.13812143 0.034663048 0.07712197 -0.24829108
-0.06024293 -0.09189981 0.36098662 0.11106261 0.022879949 0.48204008 -0.13703966 0.22164935
0.33932248 0.13858764 -0.18413119 -0.04121385 0.0035833165 -0.079333924 -0.17111632 -0.18973808
-0.16119733 -0.027362863 -0.024285639 -0.31774986 -0.41986525 -0.2544178 -0.13024957 -0.09456172
-0.06361794 -0.19968417 0.08383513 -0.31521207 0.04018708 0.15919514 0.0037754679 0.25049067
0.23207791 0.19810103 0.070686385 -0.09388534 -0.14553462 0.2757804 -0.16829982 -0.0644609
0.18877271 -0.15683462 -0.039835848 0.33564046 -0.18571636 0.0047216034 -0.07947513 -0.66120946
-0.14404684 -0.20724681 -0.3538842 -0.114750996 0.18504468 -0.022821154 0.13807207 -0.18873963
-0.28757447 -0.2733771 0.030518562 -0.30643988 -0.44504568 -0.049158696 -0.24793494 -0.09760672
0.20991491 -0.21477577 -0.101506904 0.17910405 0.19379056 0.007038067 0.0799238 0.38815647
0.040236354 0.13991518 0.15717018 -0.08153814 0.19996509 0.36153743 0.04414621 0.16883379
0.30141962 0.194839 -0.26971978 0.19351919 -0.19856289 0.062287815 0.30320218 0.0036463735
-0.16199587 0.11430394 0.16554898 -0.31482017 -0.061806988 -0.14658387 0.08913841 -0.09451732
-0.15615407 -0.11512453 -0.41414773 -0.25930968 -0.045765243 -0.08810777 0.1917806 0.2386399
0.006028427 0.16468105 0.13310587 0.21849982 0.1507289 0.11298678 0.14292805 -0.13221197
0.088233374 0.14094125 0.27678964 0.070102535 0.23424503 0.23563033 0.054368626 -0.18201967
0.016205514 0.012523314 -0.28793612 -0.2520029 0.073861256 -0.56192684 -0.16252507 0.038769353
0.09577502 -0.11257758 0.34472412 0.20790266 0.121992834 0.2534698 0.28494608 0.26952708
0.068145745 0.37023267 -0.051582597 -0.05426097 -0.041326452 -0.10916827 -0.24030174 -0.08085543
0.3014139 -0.06557541 -0.31048137 0.07673463 -0.056246564 -0.003712887 0.5683602 -0.17942573
0.28958037 -0.06777879 0.0038351638 -0.12860249 0.5022651 -0.1431615 -0.045332678 -0.036527373
0.03881215 0.17116329 0.14396015 -0.095631294 -0.08737939 -0.25102806 0.104125544 -0.1164565
-0.26307482 0.13440174 0.16602981 -0.05986271 -0.39758226 -0.23375079 -0.23832837 0.1996421

cv2.bias f4 [16]
00000000: a464 473d 9ad1 9b3d 2612 a7ba 0dd1 46be
00000010: ba54 ce3d 042a c23d 65b3 89bd 740c f4bc
00000020: c544 c23b 9b8e 553c dc53 a1bc 7219 f6bc
00000030: 0ced fd3c 33d8 81bd ddd3 f8bd 189e 1cbc
0.048679963 0.07608338 -0.0012746498 -0.19415684 0.10074754 0.0948067 -0.0672367 -0.029791094
0.005928608 0.013034488 -0.019693308 -0.03004143 0.030996822 -0.06340065 -0.12149785 -0.009559177

fc1.weight f4 [64, 66]
00000000: 6b0b da3d f6d6 213d 808b 82bd 3788 adbe
00000010: 8920 6c3e 4f28 bb3d e4d3 f3bc e726 853e
00000020: 89ad b7be cc85 c73e 5ae4 1e3f 5837 553c
00000030: 54ee 0cbd 8c8d 263d c944 91bd 0362 5b3c
00000040: f1ad 35be bc86 3a3e 786a 0abf 4480 0ebe
00000050: d4b0 7cbe a3e1 bc3d f8f3 e8be 78f4 d33c
00000060: 7054 51be b1df c73d 0835 fa3e babf a0be
00000070: 71fc 2abe 6afc 123e 6932 c73c 753a 8dbd
00000080: 7567 a03e 073f 77be 4a95 24be c8a8 903e
00000090: 7414 5a3e 1eb0 863e 9c2e 38bb 40c5 55be
000000a0: ce0a 203e ead7 08bc 315d 923d 5e08 da3e
000000b0: c2da 87be 4207 01be 2090 cd3d a335 ec3d
000000c0: f4d4 5dbd 1379 e0bc 256b 04bd 2fcd 98bd
000000d0: a154 0a3b 0021 95be c27b 32be 5635 383e
000000e0: 3cba 063e c98a f93e 85f8 cc3d 74ba e33e
000000f0: c462 82be d669 cd3e 1156 283d 4d81 0ebf
00000100: 2673 f1bd 2578 3cbe f558 ba3d 7b6c 483d
00000110: ae94 85be 404e e8be edce 293d 68d0 35be
00000120: af59 303f c4c8 9e3e 7e5a 393e 086e 063e
00000130: 61bb 053f 328f 883e f874 bcbd d416 7fbd
00000140: 24d9 2dbe 5911 a83e 79c6 2f3e c956 07bf
00000150: 40e9 603c dca1 883b 2e6e 7abe b606 88bb
00000160: 509c df3d aa99 7e3e 6389 803e 59eb 363e
00000170: 4029 41bd e729 87bc b897 c33d 37b0 4ebc
00000180: 8a01 173e 7e96 65be 2ca7 08bf d32d 833e
00000190: 0a9d 8e3e 5628 033f e93a ecbd 003e 593d
000001a0: c1de 89bd 7327 fabd 734a 35bd 5645 433e
000001b0: 3934 b0be 2cd6 423e 100a 44be 3c96 aebe
000001c0: 75f2 58be 542b f5bd 33c4 bd3e ee3f 5c3c
000001d0: d059 483d a1c6 3b3e bdf4 f9bd c649 5d3e
000001e0: 502d e4bc 477a 19be f9c3 06bd c026 a73e
000001f0: a625 043f 5bfc f43c 2190 a33e 6820 cb3c
00000200: 96fa eb3e da44 813e 78f0 81bd d11a d8bd
00000210: 3328 023f c859 3abe f715 9f3e 4788 4cbe
00000220: fdca 7f3e 23eb 9a3e d929 aa3e eb68 a23e
00000230: 5740 83be 47f5 8ebe fae3 abbe 4574 f13d
00000240: 7d2d fb3e 88f3 85be 2ef7 353e 14c8 d13e
00000250: 86d0 d73e c726 423e c68d 853e 8e6a ad3e
00000260: 13b5 d0bc 32a8 b5be 98e3 403c 4871 593d
00000270: 613c 9cbd 60bc 29be 5af9 d4be 8c17 abbe
00000280: eba0 58be c160 173e e8ef 7abe 96f7 853e
00000290: c035 41be 8cc2 a3bd 26b8 19be 27e7 213d
000002a0: e834 9ebe 4262 28bf b1be 26be 239a 8bbe
000002b0: 5629 eb3e 3d64 2bbe fd14 363e 74f8 093e
000002c0: edf5 3fbe 2bd7 d73d cba0 4fbc 7343 f33e
000002d0: 6aed 9abd 8b86 19bf 4fdc 6cbc 0949 863e
000002e0: 6608 a43d 523e 0b3f b741 f73e cb93 b7be
000002f0: 2252 2a3e 5138 383e c469 0bbd 0c40 983b
00000300: 740d 163e 710b 0dbe 18f0 44be 9210 093e
00000310: 9d8b 52be a043 f2bd 4f70 af3e 84c4 903d
00000320: 4d5e 62be f327 aebd a579 cf3d 01c4 33be
00000330: ad2e 7dbd b52a 873e 296c 563d 631c 22be
00000340: da2f b83e 6bff 57be 9ee1 8abd ee58 c5bd
00000350: fd31 febb 783a 47bd bf7b d33c edf8 12be
00000360: c386 d43e 1d64 213e f9c5 833c bfdc 9ebe
00000370: 0986 dfbc 1cf4 4d3e 6d94 99bd c097 c3bd
00000380: 4a19 abbe f251 04bd a1bb 8fbe 99ce 26be
00000390: 0f52 6d3e b847 a7bd 2061 6bbd b44d 0abf
000003a0: 930e dabe 7a8b 50be 9bd9 02be 0911 5cbe
000003b0: fa6f 4a3d df22 ae3c e6e0 303d 6bb5 eb3d
000003c0: 320d 1cbe 15ff 373e ebdd 0ebe 5edf 98bd
000003d0: 01d2 3fbe 7b31 fa3d 73fd cdbc aac3 e4be
000003e0: 1169 84be 9762 0ebe 7935 a53e 29e5 cf3d
000003f0: afbe b93d 9c5f b3be 3836 8ebe 5cf5 9b3e
0.10646709 0.039511643 -0.06374264 -0.33892986 0.23059286 0.09138548 -0.029764123 0.26006243
-0.35874584 0.38969266 0.62067187 0.013013683 -0.034406975 0.040662333 -0.07093198 0.013390067
-0.17742135 0.1821546 -0.5406871 -0.13916117 -0.2467683 0.09222724 -0.45498633 0.025873408
-0.20442367 0.097594626 0.48868585 -0.31396276 -0.16697861 0.14354101 0.02431603 -0.068959154
0.3132893 -0.24145137 -0.16072574 0.2825377 0.21296865 0.26306242 -0.0028103953 -0.20876026
0.15629122 -0.008352259 0.07146681 0.4258451 -0.26534086 -0.12600425 0.10037255 0.11533668
-0.054158166 -0.027401483 -0.032328743 -0.07461011 0.0021107572 -0.2912674 -0.17430022 0.17989096
0.1315698 0.48738697 0.10008339 0.4447819 -0.25465977 0.4011981 0.041097704 -0.5566605
-0.11789541 -0.18405207 0.090989985 0.04893158 -0.26089996 -0.453722 0.041457105 -0.17755282
0.68886846 0.31012547 0.18100926 0.13127911 0.5223904 0.2667175 -0.092019975 -0.06227763
-0.16977364 0.32825735 0.17165555 -0.528668 0.013727486 0.0041696858 -0.24456093 -0.0041511906
0.10918486 0.24863306 0.25104818 0.17863216 -0.04715848 -0.016499473 0.095504224 -0.012615255
0.14746681 -0.2242069 -0.53380084 0.256209 0.27854186 0.5123342 -0.11534674 0.053037643
-0.0673194 -0.122145556 -0.044260453 0.19069418 -0.34414843 0.19027013 -0.19144464 -0.34098995
-0.2118624 -0.11971155 0.3706375 0.013442976 0.048913777 0.1833749 -0.12204883 0.21610174
-0.027853638 -0.14988051 -0.032901738 0.3264675 0.51619947 0.029905489 0.319459 0.024795726
0.4608962 0.25247842 -0.06344694 -0.1055199 0.5084259 -0.18198311 0.31071445 -0.1997386
0.24979778 0.3025752 0.33235052 0.3172067 -0.25635025 -0.27921507 -0.3357237 0.11789755
0.49058142 -0.26162362 0.17770073 0.4097296 0.42151278 0.18960105 0.26084727 0.33870357
-0.025476968 -0.35479885 0.011773013 0.05308655 -0.07628704 -0.16575766 -0.4159649 -0.33416402
-0.21155135 0.14783002 -0.2450558 0.26165456 -0.1886816 -0.07996091 -0.15011653 0.039527085
-0.3089974 -0.6577493 -0.1628368 -0.27266034 0.45929974 -0.16737457 0.17781444 0.13473684
-0.18746157 0.10539087 -0.012672613 0.47512397 -0.075648144 -0.5997092 -0.014456823 0.26227596
0.080094144 0.5439197 0.48292324 -0.35854945 0.16632894 0.17990233 -0.034036413 0.004646307
0.1465357 -0.13773896 -0.19232213 0.13385227 -0.2056107 -0.11829305 0.34265372 0.070687324
-0.22106285 -0.085037135 0.10130624 -0.17555238 -0.06181209 0.2639977 0.052349243 -0.15831141
0.35974008 -0.21093528 -0.06781314 -0.096361026 -0.007757424 -0.048639745 0.025815843 -0.1435277
0.41509065 0.15760846 0.016085612 -0.3102779 -0.027285593 0.20112652 -0.07499013 -0.095504284
-0.33417732 -0.03230471 -0.28072837 -0.16289748 0.23175834 -0.08167976 -0.057465672 -0.54024816
-0.42589244 -0.20365706 -0.12778322 -0.21490873 0.049423195 0.021256862 0.04318323 0.11509212
-0.15239409 0.179684 -0.13951842 -0.07464479 -0.18732454 0.12216469 -0.025145268 -0.4468053
-0.2586141 -0.13904797 0.3226736 0.10151131 0.09069573 -0.35033882 -0.2777574 0.30460632

fc1.bias f4 [64]
00000000: 6dcf 36be a46c 3cbd 4bf8 e1bd a202 4dbe
00000010: b6f3 04be ad85 783d 50be 32be cc4c 753d
00000020: 52a1 93bd 25b7 e43d 768a 71bb 1588 9dbd
00000030: c2b2 94be 71f4 17be d683 30be ba95 2fbd
00000040: 6be4 4abd 47c7 2cbe 6c08 0fbe 55b7 b0bd
00000050: c738 a6bc f15f 543d 3f20 11bd 8fba 1abe
00000060: c39b 00be e3cc 65be 8ad5 c3bd 0317 3bbe
00000070: 1b3d 0bbe 5ebe 10be 6f01 a8bd 25a8 da3d
00000080: 4ee8 1bbd ce5d 6bbe 1506 e3bd 0a6e 01bd
00000090: 1fdf 2a3e 1cfd efbd 15f6 4dbe f330 6cbe
000000a0: 0c8a 6cbc 1770 99be f9e1 f3bb 0ae4 93be
000000b0: fad3 edbd d826 1abe b146 71bd 08b7 64be
000000c0: cf60 69be 6d6f 39be 66df 6cbe c2f4 d53c
000000d0: ac8e 4e3d 7bb8 0abe c558 1cbe a5e3 993d
000000e0: 64d4 1f3d ae48 8b3b b1a5 36be d2ef 0e3e
000000f0: 0df6 0abe edf6 83bd e547 93bc 4950 0c3d
-0.17852564 -0.046002045 -0.11033686 -0.20020536 -0.12983593 0.06067436 -0.17455411 0.059887692
-0.07208504 0.111677445 -0.003685621 -0.07691971 -0.2904263 -0.14839341 -0.17237791 -0.0428674
-0.049534243 -0.16872893 -0.13968056 -0.08628718 -0.020290745 0.05184931 -0.035431143 -0.15110229
-0.12559418 -0.2244144 -0.09562214 -0.18270497 -0.13597529 -0.1413512 -0.082033984 0.10676602
-0.03806334 -0.22985002 -0.110851444 -0.031599082 0.16686676 -0.11718199 -0.20113404 -0.23065548
-0.01443721 -0.2996833 -0.0074427095 -0.28884917 -0.11612697 -0.1505388 -0.058905307 -0.22335446
-0.22790836 -0.18108912 -0.23132095 0.026117686 0.05042903 -0.13546936 -0.15268238 0.07514123
0.03902091 0.0042506075 -0.17836644 0.13958672 -0.13570423 -0.06443582 -0.017978618 0.034256253

rnn.weight_ih f4 [192, 64]
00000000: d837 803d 9b29 f93d 5768 09be 6a6b 1abd
00000010: 6b1a 413e db3c e93e 1d19 323d 4613 823e
00000020: 0b68 893e f991 3f3e 09b7 a73e 2c4b 9c3e
00000030: e720 2abd 98a7 293c 6e9d 413e b094 933e
00000040: 6742 be3e 166b 073e 2e64 1f3e cc6e 9a3e
00000050: 9782 663e 79aa e23e 9fdf 903e e55e a73d
00000060: 9217 e83e dcb5 a43d 9dac 903e 7ad4 963e
00000070: b256 0d3e 92ee 493e 8b01 0f3e 6785 ba3e
00000080: 2658 153e 1c55 1d3d bfc3 723e 31e5 693e
00000090: 7957 c63d 1cd7 433e a20d 77bc 43dd 423e
000000a0: de36 883e 807e 94be 04f7 933e 299c 273e
000000b0: c248 433e 40ba db3c 8cd3 183e 1668 163e
000000c0: 296e ba3d 3ed8 c43e 3d66 3b3e 1281 513e
000000d0: 52c8 4b3e 17bb a13e e597 af3e 9aa1 753e
000000e0: 5a2a d13c ad5a 2b3e b98b d13e a065 803e
000000f0: 2994 c1bc cddf 5e3e 7892 b6bd f617 993e
00000100: 6ba9 dfbe ebd7 84be ef61 38be 01c5 a83d
00000110: 4411 5cbd b71a 26be 5bc4 7ebd ccf6 3abe
00000120: 6dec 82be 627d 58be 4bfa c2be 5239 6dbe
00000130: ddf8 1fbe d27c 6a3d 2ef6 c83c bd67 943d
00000140: 8761 18be 7085 b6be 43df 86ba 4603 00be
00000150: 1b0d 443d a526 d1be e110 b8bd 292f 853d
00000160: 5b1c f1be 50b5 80be 5393 59be 2f3e 22be
00000170: b452 9cbe 4892 90be 804e dbbe ba20 24be
00000180: 4321 62be 572b 4dbe 1adb a2be 4fc3 fa3d
00000190: c5ad cbbe f778 fdbe e066 48be bda8 bb3e
000001a0: 3edc ecbe 11b3 86be 7139 a5be 4157 20bf
000001b0: 2551 f4bd e670 bcbe f3b8 82be 786a 0cbe
000001c0: 7afd 8cbe ccbe a5be c032 88be dc00 c23d
000001d0: 6ff4 5ebe 07db 483e 1659 f93d b003 c8be
000001e0: 688d 4bbe cada 6fbd 4eee b4be b29a b5be
000001f0: 8f1e 8abe d7a8 95be 0c72 15be e6dd 7abe
00000200: 6635 4a3d 40ba ddbd 0639 e9bd 22ea c2bd
00000210: 45b6 af3e c9d8 edbd 0d4a 55be b260 133e
00000220: 4fa9 3cbd c81c f1be 6a6e d4be a91a 7abe
00000230: 7482 c33d d5ee 2ebe ff73 8cbe b9e3 67be
00000240: 28b2 d2bc 1f26 b4bc 44ea cbbe 7bce 4dbe
00000250: 0059 50be a33a 993e 6523 98be bfec ccbd
00000260: 9c89 c93e 2291 19bc f3fc a83d f9bd 44bf
00000270: 43ec 9e3c ed04 6abe 85ee 85be ebc6 2f3e
00000280: ae95 fa3d 28ea 04be 22b4 23bd b1c9 023f
00000290: d0ab adbe 2d87 fd3d 4892 01be 752f 06bf
000002a0: f742 32bf 2280 b9bd 7f15 55be 9c99 743e
000002b0: ec69 64be 6231 5abe 6cdb d53e 43be aabe
000002c0: 8cb8 9fbe 3c0e 25bf e3c3 33be c7e6 40bf
000002d0: 5c07 0d3e dc2a d6be a7e8 993b 3573 833d
000002e0: 6909 40be 3252 9bbe 40fe bc3d fe4d 6bbe
000002f0: c6fd ef3c 506f 12be d9b9 8abe baf0 b03e
00000300: 8543 1e3e f14b a8bd 2dd2 87be ff97 913d
00000310: fbb0 eb3d c684 bfbc 740f bf3d 54f2 7f3e
00000320: 0627 f13d 8de5 4c3b 774c f5bd c832 813d
00000330: d65c 4cbc a5e8 0a3d 8f71 a2bc 6b51 4fbe
00000340: 34bb 48be 0348 6fbe ed3e 8d3e 07d0 e43c
00000350: 7ce5 bb3e cb1b 183d 3a58 0c3c e505 543e
00000360: 98f3 f7bd 2016 6dbc 477c 1e3e c762 fd3d
00000370: 7bb8 eabd 089d c6bd f48a 503e 7c07 2b3d
00000380: 4e28 dabd 4b70 55be 83db c83c 6848 e63c
00000390: e3d4 70be 60b7 343e 2896 8dbb 5423 7ebd
000003a0: b011 803e df79 a8bd 07b0 c9bd ae2b 1cbd
000003b0: ed18 54be c862 843e f959 27be cf07 0cbe
000003c0: d877 c53a 65e7 8a3e a089 903e f4e3 57be
000003d0: ca1b 87be 8c6e 9e3d e7e6 b33e 4269 093e
000003e0: bbb5 9b3d 09f3 963d 18be 0abd 9a10 503e
000003f0: 48a0 433e 940e fa3d cbc3 a13d 64c8 4f3e
0.06260651 0.12166139 -0.13418709 -0.037700094 0.18857734 0.45554242 0.04348098 0.2540533
0.2683719 0.18708028 0.32756832 0.30526102 -0.041535284 0.010354899 0.18907711 0.28824377
0.37160036 0.13224444 0.1556556 0.30162656 0.22510754 0.44270685 0.2829561 0.081723966
0.45330483 0.080424994 0.28256693 0.29458982 0.13802603 0.19719914 0.13965432 0.36429903
0.14584407 0.038411245 0.23707484 0.22841336 0.09684653 0.19125026 -0.015078934 0.19029717
0.2660436 -0.29002762 0.28899395 0.16368164 0.19070724 0.02682221 0.14924449 0.14688143
0.09103043 0.3844623 0.1830072 0.20459393 0.19900635 0.3158805 0.34295574 0.23987427
0.02553289 0.16733809 0.40926912 0.25077534 -0.023630219 0.2176506 -0.089146554 0.29901093
-0.43683943 -0.25945982 -0.18006109 0.082407005 -0.053727403 -0.16221128 -0.062198978 -0.18258208
-0.25571004 -0.2114158 -0.38081583 -0.23166397 -0.15622278 0.057247944 0.02453145 0.07246349
-0.14880954 -0.3564868 -0.0010289926 -0.12501249 0.04786406 -0.40849796 -0.089875944 0.06503136
-0.47091946 -0.2513833 -0.21247606 -0.15844034 -0.30531847 -0.28236604 -0.42833328 -0.16028109
-0.22083001 -0.20036064 -0.31807786 0.122442834 -0.39781013 -0.4950635 -0.19570494 0.36652175
-0.4626178 -0.26308492 -0.32270387 -0.6263314 -0.119295396 -0.36804885 -0.2553173 -0.1371249
-0.27537137 -0.3237213 -0.2660122 0.0947282 -0.21772932 0.19614802 0.12175195 -0.39065313
-0.19878161 -0.058558263 -0.35338062 -0.35469586 -0.2697644 -0.29230377 -0.14594287 -0.2449871
0.04936733 -0.1082654 -0.113878295 -0.095173135 0.34318748 -0.11613614 -0.2082903 0.14392355
-0.046059903 -0.4709227 -0.4149049 -0.24424233 0.09546366 -0.17083295 -0.27432248 -0.22645463
-0.025719717 -0.021990834 -0.39827168 -0.20098297 -0.20346451 0.2992755 -0.29714504 -0.10006093
0.393628 -0.009372981 0.08251371 -0.76852375 0.019399768 -0.22853442 -0.26158538 0.17165725
0.122355804 -0.12979949 -0.03996671 0.51089007 -0.33920145 0.12379298 -0.12653458 -0.52416164
-0.6963343 -0.090576425 -0.20808981 0.23886722 -0.22306031 -0.213079 0.41768968 -0.33348283
-0.31195486 -0.64474845 -0.17555194 -0.7535214 0.13772339 -0.41829574 0.004696924 0.06418458
-0.1875359 -0.30336148 0.09228182 -0.2297897 0.029295813 -0.14300275 -0.27094916 0.3455866
0.15455444 -0.0821761 -0.2652754 0.07109069 0.11508366 -0.023378741 0.09329119 0.24994785
0.11775021 0.0031264753 -0.11977475 0.06308514 -0.012473306 0.033913273 -0.01982954 -0.20245902
-0.19602662 -0.23367314 0.2758707 0.027931226 0.3669852 0.03713588 0.008565957 0.20705374
-0.12107009 -0.014470607 0.15477096 0.12372356 -0.11460968 -0.0969792 0.20365506 0.041755185
-0.10652219 -0.20843618 0.024518734 0.028110698 -0.2351871 0.17648077 -0.0043208785 -0.06204541
0.25013494 -0.0822637 -0.09848028 -0.038127594 -0.20712633 0.25856614 -0.16342916 -0.13674854
0.0015065623 0.27129665 0.2823 -0.21083051 -0.2638839 0.07735929 0.35137102 0.13419059
0.07603022 0.07370574 -0.033872694 0.20318833 0.19104111 0.12209812 0.07898673 0.20291287

rnn.weight_hh f4 [192, 64]
00000000: 85d9 e33d 3d8f 53be 1e8d e9bd 8e71 a8bd
00000010: 444b 2abe b0fc 13be 196c 0ebc fd84 7bbe
00000020: 7d13 673e fded 6b3d f2d2 da3d b04d 093e
00000030: d2da cdbc de46 b4bd 1f54 513e 28fe e0bd
00000040: dd5c 82bd 623a 843e 7cc6 0dbd 61d5 43bc
00000050: df58 553a 1cbf 84bd ef4b ecbd fb31 f9bc
00000060: bf8e bfbd ae43 efbd d925 49bd 067e 593e
00000070: eab5 973d 5422 70be e1cf eabc 043a 083e
00000080: 50e3 1e3e 6230 42be fd06 0a3e 5ead 2bbe
00000090: 4deb 803c 711d 9bbd 9225 f5b9 c28d fe3d
000000a0: 569e 713e d495 e43c cef5 90bc cbd1 3f3e
000000b0: 3e18 b83d a44a 70bd c2ca 0bbd b9f3 903e
000000c0: a533 ddbd 7409 6cbe 6794 ad3d b1b1 8f3c
000000d0: 5870 433c f8cb f8bd 62be edbc eb1d 1e3e
000000e0: f54b 10be 7585 83be 9d41 46be dd53 fd3a
000000f0: 5271 db3c 60a4 04be 6d29 33bc 111d f6b9
00000100: 6317 8ebe a366 ba3e a8c7 0a3e 5689 703e
00000110: 1657 c33e b0ca 0d3e 92c1 d73d c461 f83d
00000120: 6783 83be 0172 5ebe c58f 513e f94e bfbd
00000130: 2d95 cb3d 2a69 183e 4f90 d23d e6ca efbc
00000140: b6af 04be 57b6 4b3e 6f68 6a3e 8c21 edbc
00000150: 1ff1 533e 0006 5dbd 98d2 7cbe fb81 2fbd
00000160: 7226 0f3e 0171 963e 941b f9bd 72c9 343e
00000170: 7302 88bb ed08 593e 4070 25be 81eb 40be
00000180: 9927 f1bd 8094 72be 4cff a43d b3fa 3abe
00000190: c96f 183e aac2 90be 09d4 853e 2847 193e
000001a0: 5f61 3abc bf92 7fbe f4f1 4e3e bd09 49be
000001b0: edd3 bd3d bf21 7b3e e94f a93d fb05 a8bd
000001c0: f3b3 973e 8dc7 fb3c c495 5cbe dae7 7f3e
000001d0: adf0 37be ee30 92be 1ec7 53be 067d 85be
000001e0: 5ec9 713d b4eb 51bd 4cb2 6b3e a79b 6ebc
000001f0: 3160 8bbd 6460 a43b d5e4 0fbe 9c89 39bd
00000200: df0b 7fbe ed75 3dbe 4c37 f43d 1f51 853e
00000210: 4d42 113e a5f0 c23e 8c22 5ebe 72a4 7c3e
00000220: ba9a 8abe 65ed 96be f2f4 2e3e 0738 6cbe
00000230: 9af0 d4bd f84c 743e 7421 84be d3d7 5fbe
00000240: 870c 813e 9fc7 493e 9520 83be d120 a1bd
00000250: a901 fc3e cd9f b03e ee8a 9cbe efbc e9be
00000260: 58d6 a33e 6365 f23e c728 783e b80c 843e
00000270: 13dc e1be f1b1 f5bd cac8 83bd 50fc 5abd
00000280: 5dcc 90be 5fd6 72bb c331 ef3b 175c 6f3e
00000290: 8a1e 173e 54f2 80be 38ef bb3e 7318 b13e
000002a0: b60f d7bd 0edd a6be 8be5 0b3f e487 5c3e
000002b0: 1f00 f23d 076d 873e d1f6 153e cfce bc3d
000002c0: 221d 263e b4f3 ea3d fdbf c6be 8025 a93e
000002d0: e825 1dbe a0ee bcbe 210d babe 04e7 cdbe
000002e0: 4ce6 c03e 7305 59be 5621 cc3c bc03 933e
000002f0: 19ad 093e 81ee c43d ea0b 033e bcab 81be
00000300: be95 dc3d 9be4 90be d201 a53e 4e6b 2f3d
00000310: 61d4 523e 970f c9bd 6804 80bd 28e2 5a3d
00000320: 2843 97bd cadd 81bd ce69 aabc ffd8 6ebe
00000330: 6387 df3d bbdb 0b3c 5c0f 34be eb49 b83c
00000340: 421c 9e3e b0cb 893e a8cd 75be 3594 b33c
00000350: 521f 283e 7c44 8a3e 8ffa 9ebd 6c2c 01be
00000360: 4d88 08be c556 46be a2d6 1abd b09d b03e
00000370: ed0b 22bd ed1f 99be 47f6 db3d d08c b7be
00000380: c034 52be 25ed c33e 16c9 943e f164 d03e
00000390: 5b7a 39bd 4818 713c 6b0e fbbd 222a f53d
000003a0: c9c8 a73e a21f b3bd 78ee a33c 8a90 c03d
000003b0: 3625 f73e 3ce1 ca3c ba63 39be 43ee 973e
000003c0: 2d0e 22bc 993b b93e 0826 8bbe 95ec a43e
000003d0: 0948 65bd d545 e8bd a1b1 2dbe 11f4 45be
000003e0: eac5 733d 14b7 cebe 31cc 85be ffc9 3e3e
000003f0: 6d50 b63d 93dd 4dbe 4197 e73d 8c51 cbbe
0.11125473 -0.2066011 -0.11403869 -0.08224784 -0.16630274 -0.14451861 -0.008692765 -0.2456245
0.22566028 0.05760001 0.10684766 0.13408542 -0.025128756 -0.08802579 0.20442246 -0.109859765
-0.063653685 0.25825793 -0.034613118 -0.011952729 0.0008138548 -0.06481764 -0.11537921 -0.03041934
-0.093533985 -0.11682831 -0.04910836 0.2123948 0.07407744 -0.23450595 -0.028663578 0.13303381
0.155164 -0.18963769 0.13479228 -0.16765353 0.0157372 -0.07573975 -0.00046758034 0.12429382
0.23595557 0.027903475 -0.017695334 0.18732373 0.08988999 -0.058664933 -0.03412891 0.28310946
-0.10800866 -0.23050481 0.08475571 0.017540785 0.01192864 -0.12148279 -0.029021446 0.154411
-0.14091475 -0.25687757 -0.19360967 0.0019327361 0.026787434 -0.12953329 -0.01093517 -0.00046942433
-0.27752218 0.3640643 0.13552725 0.2348989 0.3815238 0.1384685 0.105349675 0.12128022
-0.2568619 -0.21723177 0.20465 -0.09341235 0.099405624 0.14883867 0.10281431 -0.029271554
-0.12957653 0.19893776 0.22891401 -0.02894666 0.20697449 -0.0539608 -0.2468971 -0.04284857
0.1397951 0.2938309 -0.12163463 0.1765497 -0.0041506826 0.21194811 -0.16156101 -0.18839838
-0.11775131 -0.23689461 0.080565065 -0.18259697 0.14886393 -0.28273517 0.26138332 0.1496855
-0.011375754 -0.24958323 0.20209485 -0.19632621 0.09268937 0.24524592 0.08267195 -0.08204266
0.29629478 0.030734802 -0.21541506 0.24990788 -0.17962904 -0.28552955 -0.20681426 -0.26071948
0.05902993 -0.051250175 0.23017234 -0.014563478 -0.068054564 0.0050163735 -0.14052136 -0.04529725
-0.24906872 -0.18502016 0.119246095 0.26038453 0.14185448 0.38074222 -0.21692866 0.24672106
-0.27071172 -0.29477993 0.17085627 -0.23068248 -0.103974536 0.23857486 -0.25806773 -0.21859674
0.2520487 0.19705056 -0.25610796 -0.07867587 0.49220017 0.34496918 -0.30574745 -0.45651957
0.3199947 0.47342977 0.24234305 0.25790954 -0.44113216 -0.1199683 -0.06434782 -0.05346328
-0.28280917 -0.0037054045 0.007299633 0.23374973 0.14757743 -0.25184882 0.36705947 0.34588966
-0.105010435 -0.32590526 0.5464713 0.21536213 0.11816429 0.2645037 0.14644934 0.09219133
0.16222051 0.11472264 -0.3881835 0.33036423 -0.15346491 -0.36900806 -0.36338142 -0.40215313
0.37675703 -0.21193485 0.02491824 0.28713787 0.13444938 0.096158035 0.12797514 -0.25326335
0.107707486 -0.28299412 0.3222795 0.042826943 0.20588829 -0.09817427 -0.062508404 0.053438336
-0.07385856 -0.06341131 -0.020802405 -0.23324965 0.10914495 0.008536275 -0.17583984 0.022496184
0.30880934 0.26913214 -0.24004233 0.021921257 0.16418198 0.27005374 -0.07762634 -0.12614602
-0.13333245 -0.19369037 -0.037802346 0.34495306 -0.039562155 -0.2990717 0.10740333 -0.3584962
-0.20527935 0.38266864 0.29059666 0.40702012 -0.045282703 0.014715262 -0.122586094 0.11970927
0.32770374 -0.08746268 0.020011172 0.09402569 0.48270577 0.024765603 -0.18104449 0.29673967
-0.009891075 0.36178282 -0.27177453 0.32211748 -0.0559769 -0.113414444 -0.16962291 -0.19331385
0.059514917 -0.40374053 -0.26132348 0.18631743 0.08902059 -0.20104055 0.11308146 -0.39710653

rnn.bias_ih f4 [192]
00000000: 811e bb3e 066b 95be 6860 bdbe b178 59be
00000010: d41d 903e a4c8 b23d 2a78 eebd 3ab5 e4be
00000020: 15c4 e63e bc82 993e 62cc 47bd a575 cabd
00000030: 8b16 5fbe 3e41 f83d 3d15 c0bc e1ed 0fbe
00000040: 243b 483d aff8 703e 510c acbd ed73 673e
00000050: 087f 1fbd 8a62 05be ed63 e8bd 624a 983d
00000060: f29d 9b3d 6c23 18be 77b2 a8bc fa0f 483d
00000070: 0f4a bf3b ca21 293e 6448 363e 115d 8fbe
00000080: 5bbf b4bd a031 2f3b 769b 5a3d 6a50 b4bd
00000090: b238 c7bd a1bb c2bb ab56 29bd 2c8d 273d
000000a0: d832 8e3d 72fc 683f e319 bf3c c8e0 02be
000000b0: 086c 92bd b905 b1be 9b80 bbbe 3204 8ebe
000000c0: dc81 543d 5bf2 283b db2d bb3d 65fc 823e
000000d0: 75b8 5b3c 64fc e6bd 60b5 1d3e 5260 c9bd
000000e0: 3d7e 94ba d937 e83d ae6d 1e3e d96c 7cbe
000000f0: d5e9 5dbc a3a9 a7be 61d9 29be 49f4 bfbe
00000100: 1015 58bf a2a7 253f 8268 413f 37cc e63e
00000110: 0e77 843e d7db 92be aadf 803e 31f9 2d3f
00000120: e163 04c0 2dc5 2fbe 02ad 403e c931 e73e
00000130: 8677 c73e 86dc 48bf 2fa2 0e3d 6118 803e
00000140: 1d0b b23e f06c 613e 0475 b43e 32bf 73bf
00000150: a4fa 053f 9e5d 183f 1644 193f bdcb 283f
00000160: 1107 8bbe d025 263e e9f2 f23d 3367 b3be
00000170: 5048 cbbc a766 c93e c52e ffbd 0e2b 2f3f
00000180: 692e cd3e 5197 3ebd 8bd4 d7be 4fc6 0c3e
00000190: 061a 133f 4388 9dbe 4458 95be 8259 f6be
000001a0: 89b2 7cbe 49e9 1ec0 7fc7 acbe db14 4dbe
000001b0: 28fd 7fbe ab86 123f 4fca b9bc 2edb 8b3e
000001c0: 241d 993e 9a91 fe3e 2892 073f 6f25 d73e
000001d0: c377 f0bd 1c66 c23e 6935 1c3f d4d1 2b3f
000001e0: 7545 1d3f ca64 13bf 0740 b1be b06b 2b3e
000001f0: eba6 0e3f 678a 2a3f a8bb 703e 56be d13e
00000200: 67e7 263f 38ac a6bd c78f 8ebd 7ed4 9fbc
00000210: 2a31 77be f75f 93be f79f 09bd 31b6 85bd
00000220: 5f55 4d3f 1fdf b83e 9e85 243e 8fb4 40be
00000230: 5530 853e f58b 69be 1df3 24bd 1891 283e
00000240: 45fb dc3c 762a e6bd f06b d93d fc86 9a3e
00000250: 8436 273e 7b36 c13c c2c1 92be b191 98be
00000260: 27de 1dbe 07dc 16be a7ae 5a3e cbf3 543e
00000270: 4990 b83e 59ee 92bd 757c 123e 0946 d23c
00000280: 70bd cabd 10e7 823e 0aa3 8d3e 8336 623d
00000290: 4bf0 143e f36c bf3e 8250 51be 684e 99bd
000002a0: 3693 733e 262b b23f 4fdd babd 1b2a dcbd
000002b0: 5bcc 663e 00ef a7bd b981 0cbe 8625 f7bd
000002c0: 34bc 8fbe 91ce 49be 7feb 2abe 5438 b4be
000002d0: 4ff2 bd3e a6ae 373e dc03 f0bd 34c3 b1bd
000002e0: 8134 783e b17b 033e 02ff 9ebe 26f0 eebd
000002f0: e3f0 493e 773f 5d3c 07e9 c93d 6b22 9ebd
0.3654671 -0.29183215 -0.36987615 -0.21237446 0.28147757 0.087296754 -0.11644013 -0.44669515
0.45071474 0.29982555 -0.0487789 -0.0988572 -0.21785943 0.12121819 -0.023447627 -0.14055587
0.048884526 0.23532365 -0.08400787 0.22602816 -0.038939506 -0.13025871 -0.11347184 0.074360624
0.07598485 -0.14857262 -0.020592911 0.04884336 0.005837686 0.16516796 0.17801052 -0.28000692
-0.08825561 0.002673246 0.053370915 -0.088044 -0.09727611 -0.0059427773 -0.04134242 0.040906116
0.069432914 0.910102 0.023327773 -0.1278106 -0.071495116 -0.3457468 -0.36621556 -0.27737576
0.051881656 0.002577922 0.091396056 0.25583187 0.013410677 -0.112786084 0.1540122 -0.09832825
-0.0011329126 0.11338777 0.15471527 -0.24650897 -0.013544519 -0.3274661 -0.1658683 -0.37491062
-0.8440714 0.6470891 0.7555009 0.4507768 0.25872082 -0.2868335 0.25170642 0.6795836
-2.0685961 -0.1716506 0.18815997 0.4515517 0.38958377 -0.7846149 0.03482264 0.250186
0.34774104 0.22014213 0.35245526 -0.95213616 0.5233557 0.5951785 0.59869516 0.6593588
-0.2715383 0.16225362 0.11862738 -0.35039672 -0.024814755 0.3933613 -0.124600925 0.6842507
0.4007447 -0.046531025 -0.42154345 0.13747524 0.57461584 -0.30768022 -0.29168904 -0.48115164
-0.24677481 -2.4829886 -0.33745953 -0.20027487 -0.24998915 0.57236737 -0.022679476 0.27315658
0.29905045 0.4972046 0.5295739 0.42020747 -0.11741593 0.37968528 0.61019 0.6711705
0.6143411 -0.57575667 -0.3461916 0.16740298 0.55723447 0.66617435 0.23509085 0.40965527
0.6519684 -0.08138317 -0.06961017 -0.019510504 -0.24139848 -0.28784153 -0.03359982 -0.06528891
0.8020839 0.36107728 0.16066596 -0.18818878 0.26013437 -0.22807296 -0.040270913 0.16461599
0.026975283 -0.112385675 0.106162906 0.3018111 0.1632939 0.023585549 -0.2866345 -0.29798654
-0.15416776 -0.14732371 0.21355687 0.20796125 0.3604758 -0.071743675 0.14305289 0.025668161
-0.098994136 0.25566912 0.2766345 0.055227768 0.1454479 0.3738781 -0.20440868 -0.07485658
0.23786625 1.3919418 -0.091242425 -0.107502185 0.22538893 -0.081998825 -0.1372136 -0.12067704
-0.28073275 -0.19707705 -0.16691397 -0.35199225 0.3709893 0.17937717 -0.11719486 -0.0867981
0.24238779 0.12840153 -0.3105393 -0.116668984 0.19720797 0.013503901 0.098588996 -0.077214085

rnn.bias_hh f4 [192]
00000000: a84b 8d3e 0756 bbbd 1e3b 65be 7be4 22be
00000010: 504e 933e 7613 603e 2438 b4be 1b1b e1be
00000020: cd57 c93e 463b 6b3e c3b3 153d 28c8 05be
00000030: cd0f 4bbe 3e1e 5d3e 5079 febc 1458 3abe
00000040: b94b 8a3d 55a1 eb3d 3845 37be b888 7f3d
00000050: 6cd4 94bc 9c1b 80be 625c 57bd 53f2 8d3d
00000060: e694 c639 9049 3bbe 6ebf 30bd 47ae a6bc
00000070: 7298 693e 8e74 6e3d e2c4 2b3d 42bf 9bbe
00000080: 8d54 c0bd 1307 11bc 7657 9cba ced8 293c
00000090: 1f2f 15be 5a74 d03c cc6f a93d bed1 f53d
000000a0: b033 ed3d 2217 6b3f b19f f43c 51ce 77be
000000b0: 8b3a 09bd cd8a b7be a2e4 f6be ec96 06be
000000c0: 8eba 96bd dee1 1bbe 0fb6 96bd d417 5d3e
000000d0: 0d53 7a3d c7f8 d8bd 1c5c ff3d 2153 c9ba
000000e0: ac69 19bd eb2e 2f3e 7042 b53c 2105 26be
000000f0: 5264 4ebe ee9d 82be d355 22be 6e54 f1be
00000100: 4b3d 50bf 73b2 233f 068b 2b3f 3997 023f
00000110: 2114 e73e f18a 55be b143 c83e 008f 0d3f
00000120: b26b 0cc0 ed4e a8be 4f60 923e 60ec f83e
00000130: e280 053f 13e1 46bf a5bb 0c3d fa5e 9d3e
00000140: 66ae c63e 65ff cd3e d456 663e 40aa 76bf
00000150: 3c91 163f a6fe 083f 1eb6 1e3f 71f5 083f
00000160: d757 c0be d824 703e 2ffd 0f3d c1b4 88be
00000170: d9c2 a53b 7bd2 953e efe8 c7bd d5b5 333f
00000180: d40b f13e 392a 643d 1b9d 94be 3e03 943e
00000190: 8554 f33e edc7 73be 3bbe a5be ec43 febe
000001a0: 32f2 83be 9112 15c0 4746 9abe eac4 4fbe
000001b0: e5c6 00be fcdc 393f 0c95 51bd 3e1d 9d3e
000001c0: 120d 463e ec03 063f afb1 0f3f f4c7 cd3e
000001d0: b6c7 ffbc 34fe e83e 2ff4 1e3f 03ea 093f
000001e0: bb0d 0e3f 6cdb 21bf 3a43 9bbe 434b 743e
000001f0: 4878 b13e 64a3 2a3f ab39 233e dd80 f93e
00000200: 1ce7 2c3f b31a 983d 5ac1 dcbd 02eb c0bd
00000210: e7ed 00bf 517f 95be 2b5c 2dbd 8873 ac3c
00000220: 74c3 563f 0694 703f 6dba 5f3e ad05 30be
00000230: a5ef 763e 2b4e 6dbf d587 483c b285 873e
00000240: 110d a63e 63fd 9bbd 7c4c ba3c 877f bc3e
00000250: 3280 d13d b345 763d b102 71bd c817 86be
00000260: 0a6a 9ebe 95c5 44be 3fa8 cc3d 698d c33e
00000270: 1704 8f3e 7735 4a3e 2300 e03e e111 1b3d
00000280: 52e3 5fbd 109f 7e3e c006 df3d 6369 aa3d
00000290: 68ee 5b3e b930 f63e 45e1 ffbe af98 b1be
000002a0: e931 783e d5bd b53f 3777 423e c206 64bd
000002b0: ea60 c43d c423 38bd 534d f0bd 3763 5a3e
000002c0: b51d 4abe 9f9b 90be 06d0 3cbe d63a a9be
000002d0: 6c6c 003f 141f 743e 77f5 2bbe 7ffe bbbd
000002e0: 3689 cc3d 0eea 0c3f 1fd9 c7bd 1693 88be
000002f0: 0c39 9d3e 0095 43bd 92b6 653e b7af 07be
0.27596784 -0.09147268 -0.22385833 -0.15907471 0.28770685 0.21882424 -0.35199082 -0.43965992
0.393248 0.2297183 0.036548387 -0.13064635 -0.19830246 0.21593568 -0.031063706 -0.18197662
0.06752724 0.11505381 -0.17897499 0.062386245 -0.018167697 -0.25021064 -0.052578337 0.06930985
0.0003787644 -0.1828978 -0.04315131 -0.020346774 0.2281206 0.058216624 0.04193581 -0.30419356
-0.09391127 -0.008851784 -0.0011927921 0.010366632 -0.14568757 0.025446106 0.08273277 0.12002896
0.11582124 0.9183217 0.029861303 -0.24199797 -0.033503097 -0.35848084 -0.48221308 -0.1314351
-0.07359801 -0.1522288 -0.07358944 0.21591121 0.06111436 -0.105943255 0.1246874 -0.0015359857
-0.037454292 0.17107742 0.022126406 -0.16212894 -0.20155457 -0.25511116 -0.15853052 -0.47134727
-0.81343526 0.63944167 0.6700901 0.51012 0.45132545 -0.20853783 0.39114144 0.55296326
-2.1940732 -0.32872716 0.28589103 0.4861784 0.52149785 -0.77687186 0.03435864 0.30736524
0.3880493 0.40233913 0.2249406 -0.9635353 0.5881536 0.5351356 0.6199664 0.53499514
-0.37567016 0.23451555 0.035153564 -0.26700404 0.005058628 0.29262146 -0.097612254 0.7019933
0.47079337 0.05570433 -0.29026112 0.28908724 0.4752542 -0.23806734 -0.32371697 -0.49661195
-0.25770718 -2.3292582 -0.30131742 -0.2028996 -0.12575872 0.7260282 -0.051167533 0.30686373
0.19340923 0.52349734 0.561305 0.40191615 -0.03122316 0.45506442 0.62091345 0.538727
0.554897 -0.63225436 -0.30324727 0.23856835 0.3466208 0.66655564 0.15939967 0.48731127
0.67540145 0.074269675 -0.107790664 -0.09419824 -0.5036301 -0.29198697 -0.042324226 0.021051183
0.8389199 0.93975866 0.2184846 -0.17189665 0.24114855 -0.926974 0.012239416 0.2646919
0.32431844 -0.07616689 0.022741549 0.36816046 0.102295294 0.060125064 -0.058840457 -0.2619002
-0.30940276 -0.19215997 0.09993028 0.38193825 0.27932808 0.19746958 0.43750104 0.037858848
-0.05466015 0.24865365 0.10889959 0.08320882 0.21477664 0.48084047 -0.49976555 -0.346868
0.24237789 1.4198557 0.1899079 -0.055670507 0.095887974 -0.044955984 -0.117334984 0.2132691
-0.19737895 -0.2824373 -0.1843873 -0.330527 0.5016544 0.2383998 -0.16792856 -0.09179401
0.099871084 0.5504464 -0.097582094 -0.26674718 0.30707586 -0.04774952 0.22432926 -0.13250624

fc2.weight f4 [1, 64]
00000000: 7a3f 913e 2797 90bd 837d e63d 73d0 edbc
00000010: 50b3 aabd 02d5 45be f746 02be cd25 e73d
00000020: 641f 583e e1ad 253e a4d3 d03d cc4b 78be
00000030: 0c2e 3bbb e695 10be 54d7 77be 3c4d 1c3e
00000040: 14ba 823e 4b9f a83b 29e4 3ebd 917a 103e
00000050: dbc5 843e 0ff7 103e f55e 08be a828 4ebe
00000060: fa8b 01be df01 c2bd ff0f a13d 4d06 653e
00000070: 994d 173e 0162 e33d c605 3b3e 10de 3abc
00000080: 56a4 cfbb fcf0 513e 7fc2 483e 2fd1 7e3e
00000090: 562e c83d fcf1 0c3e 2ed6 50be c721 1dbe
000000a0: 8dcb 643e 93f2 6d3e fc16 043e b2a5 e43d
000000b0: a043 253e 6686 05bd 1fed 78bd 7a0c c63d
000000c0: 5d27 aebd 3113 333d 372f 26be be8e 3c3d
000000d0: 3b9b f63d 3fd1 c93c 346f 89be ebfd 50be
000000e0: 1950 763e dcdb c6bd 57a0 3fbe 6706 4d3d
000000f0: 09aa 2a3e 7c28 11be 9574 ed3d ddb8 d9bd
0.2836874 -0.0706008 0.11254408 -0.02903006 -0.083349824 -0.19319537 -0.12722383 0.11286507
0.21105725 0.16179611 0.10196617 -0.24247664 -0.0028561382 -0.14119682 -0.24203235 0.15263838
0.2553259 0.0051459423 -0.04660431 0.14109255 0.25932202 0.14156745 -0.13317473 -0.20132697
-0.12651053 -0.09473013 0.07864379 0.22365685 0.14775695 0.11102677 0.18263921 -0.011405483
-0.006336729 0.20502084 0.19605444 0.24884485 0.09774463 0.13764185 -0.20394203 -0.15344916
0.22343273 0.23237066 0.12899393 0.111644164 0.16139078 -0.032598875 -0.06077301 0.096703485
-0.08503602 0.043719474 -0.16228949 0.046034567 0.120413266 0.02463591 -0.26842654 -0.20409362
0.24053992 -0.097099036 -0.18713509 0.050054934 0.16666426 -0.141756 0.11594502 -0.10630963
