model_ppo_2cv_lot/mappo/3m/7_critic_params.pkl (torch, 126209 bytes, 11 tensors)

cv.weight f4 [8, 3, 3, 3]
0	0xbba8af27	-0.005147833
1	0x3e120c0f	0.14262412
2	0xbc94bb50	-0.018155724
3	0xbee7e466	-0.45291442
4	0xbf20ae8b	-0.6276633
5	0xbf60c430	-0.8779936
6	0xba5de53d	-0.000846464
7	0x3e10a86a	0.14126745
8	0x3c429abe	0.011877714
9	0x3e1c6f4f	0.15276836
10	0x3d974270	0.07385719
11	0x3d958250	0.07300246
12	0x3e39680a	0.18106094
13	0x3e321391	0.17390276
14	0x3e813283	0.2523385
15	0x3e134136	0.14380345
16	0xbd4697fc	-0.048484787
17	0x3def9e66	0.11700134
18	0x3e9a31ba	0.30116063
19	0x3ec705d5	0.38871637
20	0x3efa90f8	0.48938727
21	0x3ee404d9	0.44534948
22	0x3dfff417	0.12497728
23	0x3f26b6f3	0.6512291
24	0x3e904384	0.2817651
25	0x3edef8f4	0.4354931
26	0x3ee9b54e	0.45646137
27	0x3ce497e9	0.027904468
28	0xbf330f4d	-0.6994522
29	0x3a5abbe6	0.0008344039
30	0x3dc62514	0.09675041
31	0xbf5ad1e3	-0.8547651
32	0x3e5404cb	0.20704953
33	0x3bd792e8	0.006578792
34	0xbf3769dd	-0.7164591
35	0xbb5b9ea2	-0.00335113
36	0x3e7f5023	0.24932913
37	0x3e896716	0.2683646
38	0x3e1a9858	0.15097177
39	0x3dcd3bbd	0.1002116
40	0x3e406c94	0.1879142
41	0x3d1b9df1	0.03799242
42	0x3d0f9bd1	0.035060707
43	0x3e515df3	0.20445995
44	0x3d1b624f	0.03793555
45	0x3eab37f0	0.33441114
46	0x3ef88432	0.48538357
47	0x3eaeec80	0.3416481
48	0x3e10b75b	0.14132445
49	0x3c883e7c	0.016631357
50	0x3de022c4	0.10944131
51	0x3e57b20a	0.2106401
52	0x3ee60aa3	0.4492999
53	0x3e8e7663	0.27824697
54	0xbd71119c	-0.058854684
55	0x3e0a870c	0.13528079
56	0x3daa8b21	0.08327318
57	0xbdc22da5	-0.09481362
58	0x3aff1c99	0.0019463479
59	0x3e0bab62	0.13639596
60	0xbd58ea3b	-0.052957755
61	0x3d4017c9	0.046897683
62	0x3c0da005	0.008644109
63	0xbf3b26d8	-0.73106146
64	0xbd329882	-0.043602474
65	0xbf2edef3	-0.68308944
66	0xbf3154ee	-0.6927022
67	0x3e5449b9	0.20731248
68	0xbf597e71	-0.8495856
69	0xbf2df4ba	-0.6795155
70	0xbf15e9fd	-0.5856016
71	0xbefe5e61	-0.4968138
72	0x3eaa549d	0.3326768
73	0x3f14a1c6	0.58059347
74	0x3f1b28db	0.60609215
75	0x3ec30314	0.38088286
76	0x3f2a740d	0.6658333
77	0x3dac6599	0.08417816
78	0xbc97771f	-0.018489419
79	0x3e8917c9	0.2677596
80	0x3e188117	0.14892994
81	0x3d62ab97	0.055339422
82	0x3e0ab47a	0.13545409
83	0x3cc1c693	0.023654258
84	0x3e811a4b	0.25215372
85	0x3e2a27d7	0.1661676
86	0x3e14dd0c	0.14537448
87	0x3e1a0ed8	0.15044725
88	0x3e6d9573	0.23201542
89	0x3cad0f84	0.021125562
90	0xbc29242a	-0.010323564
91	0x3d0a566b	0.03377382
92	0x3ca6abf9	0.020345675
93	0x3d3d2944	0.046181932
94	0x3cc4d306	0.024026405
95	0x3cf83dd7	0.030302925
96	0x3c9d80d7	0.019226475
97	0x3c7d8fc2	0.015476169
98	0x3d9e1348	0.07718521
99	0x3d5871cf	0.05284291
100	0xbd833196	-0.06405942
101	0x3b5415fe	0.0032361741
102	0xbe81c498	-0.25345302
103	0xbe72f724	-0.23727089
104	0x3cd0d649	0.025492804
105	0xbd5c7399	-0.05382118
106	0xbe03a12e	-0.12854454
107	0x3cfa6de1	0.030569972
108	0xbd8d5094	-0.06900135
109	0xbda4cdf7	-0.08047097
110	0xbdce31ca	-0.1006809
111	0xbdb2b64e	-0.08726178
112	0xbd814602	-0.06312181
113	0xbe31eabe	-0.17374703
114	0xbb1fe14a	-0.0024395757
115	0xbd199c89	-0.0375028
116	0xbd853482	-0.06504156
117	0x3f0fecca	0.56220686
118	0x3ef27176	0.4735219
119	0x3ee13c30	0.43991232
120	0x3ee486ca	0.44634086
121	0xbeb14f00	-0.34630585
122	0x3efe416c	0.49659288
123	0x3ea735d0	0.32658243
124	0x3f0ab17f	0.5417709
125	0x3ed6b98d	0.4193844
126	0x3e0f8175	0.14014228
127	0x3ecd50fd	0.40100852
128	0x3e80da85	0.25166717
129	0x3ea36c08	0.3191836
130	0x3f89310e	1.0718095
131	0x3eda8455	0.42679086
132	0xbec34cc2	-0.381445
133	0xbe7beeda	-0.24602833
134	0xbe3c2b80	-0.18375969
135	0xbe07a443	-0.13246255
136	0x3bfac351	0.007652678
137	0xbb181cde	-0.0023210566
138	0xbe17a6aa	-0.14809671
139	0x3da3c2a9	0.07996113
140	0x3cfa8040	0.030578732
141	0xbee31d7a	-0.44358426
142	0xbda66cfb	-0.08126255
143	0xbd41e6b1	-0.047339145
144	0xbe22d51b	-0.15901606
145	0x3d6b5493	0.057453703
146	0x3d9d1f7a	0.07672019
147	0x3eaf0395	0.3418242
148	0x3e1842e9	0.14869274
149	0x3e5d45bf	0.21608637
150	0x3e9c5dd8	0.30540347
151	0x3ee09401	0.43862918
152	0x3f288974	0.65834737
153	0x3e926c22	0.28598124
154	0x3e46b75a	0.1940588
155	0x3d33207f	0.043732163
156	0x3f0dd570	0.55403805
157	0x3e9d0a46	0.306719
158	0xbe0cd410	-0.1375277
159	0x3eb2cec0	0.34923363
160	0x3efb16ae	0.4904074
161	0x3e8bdf33	0.27318725
162	0x3db0b85b	0.08628913
163	0x3bbce317	0.005764376
164	0x3dbcb7a0	0.09214711
165	0xbd0a0b6f	-0.03370231
166	0x3eb0dd60	0.34543896
167	0xbe7061ba	-0.2347478
168	0x3e0838c3	0.13302903
169	0xbe7750b5	-0.24151881
170	0x3e51051d	0.20412107
171	0x3ea4055d	0.32035342
172	0x3dd7ef95	0.105437435
173	0xbd3f6f33	-0.046736907
174	0x3e0c821c	0.13721508
175	0xbdfa6af6	-0.122274324
176	0x3dfadd53	0.122492455
177	0x3c5f7b37	0.013640217
178	0x3e482bc8	0.19547951
179	0x3c9be0bb	0.019028058
180	0x3d451a4f	0.048120793
181	0x3da43b8c	0.0801917
182	0xbc960ab0	-0.018315643
183	0xbcb98d51	-0.022650393
184	0xbd873548	-0.066019595
185	0xbc8a5874	-0.01688788
186	0x3d5fe655	0.05466302
187	0x3d407340	0.04698491
188	0x3dacd025	0.08438138
189	0x3c751ac9	0.014959999
190	0xbd773365	-0.060351748
191	0xbcb690ae	-0.022285786
192	0x3cd7fce7	0.02636571
193	0xbc0ec1db	-0.008713211
194	0xbd4e2c74	-0.050335363
195	0xbc723b2b	-0.014784615
196	0xbdbe0ad4	-0.09279409
197	0xbd606c18	-0.054790586
198	0xbe67de32	-0.22643355
199	0xbe4c6a16	-0.19962344
200	0xbdf7dcda	-0.12102671
201	0xbe1a2c69	-0.15056004
202	0x3e0fe6c6	0.14052877
203	0xbe7a38bf	-0.2443571
204	0xbe26bcee	-0.16283008
205	0xbe1f7ed9	-0.15575732
206	0xbea5874a	-0.3232978
207	0x3ecb5739	0.39714983
208	0x3f046b6c	0.5172641
209	0x3e948dfd	0.29014578
210	0x3f14e9de	0.58169353
211	0x3f7ecfb6	0.9953569
212	0x3f365d71	0.7123633
213	0x3ef3f251	0.4764581
214	0x3f4f1243	0.8088724
215	0x3efada0f	0.4899449

cv.bias f4 [8]
0	0xbe678192	-0.22608021
1	0xbe0dc83f	-0.13845919
2	0xbea1c813	-0.31597957
3	0xbe9f1ed7	-0.31078216
4	0x3d3129d2	0.043252774
5	0xbdbb267f	-0.09138202
6	0xbed95257	-0.42445633
7	0x3b37cbac	0.0028044982

cv2.weight f4 [16, 8, 3, 3]
0	0xbe956e73	-0.2918583
1	0x3dfa0233	0.12207451
2	0x3e236a6a	0.15958562
3	0x3d9d034a	0.07666643
4	0xbe2acf70	-0.16680694
5	0x3e225368	0.1585213
6	0x3d014542	0.03156019
7	0x3eaf1dbf	0.34202382
8	0x3e6b1460	0.22956991
9	0x3d8559e3	0.06511285
10	0x3e804108	0.25049615
11	0xbe8771e3	-0.26454076
12	0x3d8f928f	0.07010376
13	0x3daef119	0.085420795
14	0x3e750572	0.23927858
15	0xbeba3747	-0.36370298
16	0x3d8b3dcf	0.067988984
17	0xbd821847	-0.06352287
18	0x3ebf5591	0.3736997
19	0xbd7f953b	-0.062398177
20	0x3e050978	0.12991893
21	0x3d353c1f	0.04424679
22	0xbe145f0e	-0.14489385
23	0xbe0ee0d5	-0.13952954
24	0x3ddfd8e1	0.10930038
25	0xbed9626a	-0.42457896
26	0xbe23f028	-0.16009581
27	0x3e06c9f2	0.13162974
28	0x3dd4aecf	0.103849046
29	0xbdb22637	-0.08698695
30	0xbd392103	-0.045197498
31	0x3dc36bc9	0.09542043
32	0xbe6a5baf	-0.22886537
33	0x3e66a70a	0.22524658
34	0x3e8cef89	0.275265
35	0xbe41c049	-0.18921007
36	0x3f2e867c	0.68173957
37	0x3ed11d2c	0.4084257
38	0xbcd59f98	-0.026077077
39	0x3eb6056e	0.35551018
40	0x3d0bfc6b	0.03417627
41	0xbd8d018b	-0.0688506
42	0x3e06b1c3	0.13153748
43	0xbd2de7c8	-0.042457372
44	0xbf14ac16	-0.5807508
45	0x3e076036	0.13220295
46	0xbca5d531	-0.02024326
47	0x3de38f92	0.11111368
48	0x3ce99ead	0.028518045
49	0xbe17b131	-0.14813687
50	0x3caff709	0.0214801
51	0xbdeb3ddd	-0.11486409
52	0xbea4ed09	-0.32212093
53	0xbea5c8ba	-0.32379705
54	0xbe4179fb	-0.18894188
55	0xbdcfea1d	-0.101520754
56	0x3d91b57c	0.071146935
57	0x3c65c6d8	0.014024459
58	0xbdef5b6e	-0.11687361
59	0xbe36d725	-0.17855509
60	0x3cccb56d	0.024988854
61	0xbea26a1f	-0.3172159
62	0x3d23c95e	0.03998696
63	0x3bd3f4ff	0.006468415
64	0x3e42b126	0.1901289
65	0x3d5957c8	0.05306223
66	0x3dcb2df2	0.09920873
67	0x3de5c5e1	0.11219383
68	0xbd960034	-0.073242575
69	0xbcfdc1eb	-0.030976256
70	0x3eb86cd0	0.36020517
71	0x3cfba54e	0.030718472
72	0x3df61841	0.12016345
73	0x3f13e2e6	0.57768095
74	0x3ea0d3f2	0.314117
75	0xbc013db3	-0.007888245
76	0x3e9ef624	0.31047165
77	0x3da1e172	0.079043284
78	0x3e134255	0.14380772
79	0xbe78b1bf	-0.24286555
80	0xbd2517a0	-0.040305734
81	0xbe11d714	-0.14242202
82	0x3ede6834	0.43438876
83	0x3d98527d	0.074376084
84	0x3db4778c	0.08811864
85	0x3ef39afd	0.47579184
86	0xbdde2eeb	-0.10848793
87	0x3e4cfd4f	0.20018505
88	0x3e9b9616	0.30387944
89	0x3e38271c	0.17983669
90	0xbe3000a3	-0.17187743
91	0xbc67dc86	-0.014151698
92	0xbcb3bc68	-0.021940425
93	0xbc9eb7f1	-0.01937482
94	0xbe572222	-0.21009114
95	0xbe0ea5f0	-0.13930488
96	0xbe2e5286	-0.17023668
97	0xbd9258da	-0.07145853
98	0xbd11e891	-0.035622183
99	0xbe76a8ae	-0.24087784
100	0xbede5adc	-0.43428695
101	0xbe81903d	-0.25305358
102	0xbdb996d2	-0.0906197
103	0xbd8e3607	-0.06943899
104	0xbcfaefd4	-0.030631937
105	0xbe2e49b4	-0.17020303
106	0x3dcd1588	0.100138724
107	0xbe93ff75	-0.28905836
108	0x3e10979a	0.14120331
109	0x3e60e876	0.21963677
110	0x3de4ec36	0.11177866
111	0x3ea46ea2	0.32115656
112	0x3e8afc56	0.27145642
113	0x3e917192	0.2840696
114	0x3d971d7d	0.07378671
115	0xbc76d250	-0.015064791
116	0xbdb67159	-0.08908338
117	0x3e3cdf7b	0.18444626
118	0xbdbe5e9e	-0.092953905
119	0xbda8faa7	-0.08250933
120	0x3e6472a0	0.22309351
121	0xbe0cb48f	-0.13740753
122	0x3dcac93d	0.099016644
123	0x3eca6ca9	0.39536026
124	0x3bc84d39	0.0061127213
125	0x3d80db65	0.06291846
126	0xbd9c4272	-0.07629861
127	0xbf33d259	-0.7024284
128	0xbddff815	-0.1093599
129	0xbe43ba42	-0.1911402
130	0xbeac86a7	-0.33696482
131	0xbdd8c004	-0.10583499
132	0x3e1722d4	0.1475938
133	0xbd2220ea	-0.03958217
134	0x3e7dbf7d	0.24780078
135	0xbe7247ed	-0.2366025
136	0xbe90928f	-0.28236815
137	0xbe93548f	-0.2877545
138	0x3dc5e26a	0.09662326
139	0xbecb1738	-0.39666152
140	0xbe9bdb53	-0.3044077
141	0xbdae39cc	-0.08507118
142	0xbebafed7	-0.36522552
143	0xbdb23c05	-0.08702854
144	0x3e458b89	0.1929151
145	0xbe6030d9	-0.21893634
146	0xbe284b3d	-0.16434951
147	0x3e4ef49a	0.20210496
148	0x3e2d3b59	0.1691717
149	0xbda4c417	-0.08045214
150	0x3da14daf	0.07876145
151	0x3ec3a94a	0.38215095
152	0xbcf59233	-0.02997694
153	0x3e04fb52	0.12986496
154	0x3d06d557	0.0329183
155	0xbddf61ff	-0.10907363
156	0x3e907998	0.2821777
157	0x3ea1c3de	0.31594747
158	0x3d3da79b	0.04630242
159	0x3e1cca87	0.15311633
160	0x3e9833a9	0.29726914
161	0x3e3dc7d5	0.18533261
162	0xbe7b5683	-0.2454472
163	0x3e0b16d2	0.13582924
164	0xbe7ae1b0	-0.24500155
165	0x3e1c2eb5	0.15252192
166	0x3eb36a38	0.35041976
167	0x3d832355	0.064032234
168	0xbdf40b5f	-0.11916231
169	0x3e0c665e	0.13710925
170	0x3e56e937	0.20987402
171	0xbeb1fed2	-0.34764725
172	0xbd285197	-0.041093435
173	0xbd911e90	-0.070859075
174	0x3cd48465	0.025942037
175	0xbdfd22cb	-0.12360152
176	0xbe3d0a96	-0.1846107
177	0xbe0667c4	-0.13125521
178	0xbec296c4	-0.3800565
179	0xbe8fd7c3	-0.280943
180	0xbd2a4e2d	-0.04157846
181	0xbe0d5f38	-0.13805854
182	0x3e141db2	0.14464453
183	0x3e542923	0.20718817
184	0xbd51c749	-0.051215444
185	0x3e2bdd79	0.16783704
186	0x3dd41e3d	0.1035733
187	0x3e610328	0.2197386
188	0x3e27033c	0.16309828
189	0x3dbd4ac2	0.092427745
190	0x3df84855	0.12123171
191	0xbe3153bd	-0.173171
192	0x3d94d4df	0.072671644
193	0x3dddf3a0	0.108374834
194	0x3e74f11c	0.23920101
195	0x3de45a73	0.11150064
196	0x3e7626d4	0.24038249
197	0x3e90f3f2	0.28311116
198	0x3d369aeb	0.044581335
199	0xbeabb33c	-0.33535182
200	0x3d874d31	0.0660652
201	0xbd98d132	-0.07461776
202	0xbecf6f11	-0.40514424
203	0xbeab8a7f	-0.33504102
204	0xbcfeed0e	-0.031118896
205	0xbf1af5e1	-0.6053143
206	0xbe8bbcec	-0.27292573
207	0x3d3fc327	0.04681697
208	0x3dbf2e8c	0.0933505
209	0xbe24460d	-0.16042347
210	0x3ed7bd45	0.4213659
211	0x3ea22956	0.31672162
212	0x3df50251	0.119633324
213	0x3e7ad468	0.24495089
214	0x3ea28d62	0.31748492
215	0x3e83771b	0.25676808
216	0x3d6441f5	0.055726964
217	0x3f0bb144	0.5456736
218	0xbd6c7601	-0.057729725
219	0xbc6af151	-0.014339761
220	0xbdd7fbe6	-0.10546093
221	0xbda16cd7	-0.07882088
222	0xbe37e6af	-0.17959093
223	0xbe17f212	-0.14838436
224	0x3e909361	0.2823744
225	0xbd0bd3b6	-0.03413745
226	0xbe79f81c	-0.24411052
227	0x3df7d051	0.1210028
228	0x3e1bd45c	0.15217727
229	0xbd943929	-0.07237465
230	0x3f0ddf10	0.5541849
231	0xbe86743f	-0.26260564
232	0x3e834490	0.25638247
233	0xbd63394e	-0.055474572
234	0x3c5a96fd	0.0133416625
235	0xbd96acb3	-0.073571585
236	0x3ef37bb5	0.47555318
237	0xbd3b183f	-0.04567742
238	0xbdb790b2	-0.08963145
239	0x3d7d8ad5	0.06189998
240	0x3e30b74b	0.1725742
241	0x3e498922	0.19681218
242	0x3e93c600	0.28862
243	0x3bf35c43	0.00742677
244	0xbb9cdc07	-0.0047869715
245	0xbe309451	-0.17244078
246	0x3e9592af	0.29213473
247	0xbd81715e	-0.06320451
248	0xbe83580e	-0.25653118
249	0x3e8062ed	0.25075474
250	0x3e86ba75	0.2631413
251	0xbd60713e	-0.054795496
252	0xbeabd0bc	-0.3355769
253	0xbda58649	-0.080822535
254	0xbe8b04b8	-0.27152038
255	0x3eac8944	0.33698475

cv2.bias f4 [16]
0	0xb9f4f5d9	-0.00046722477
1	0x3d971e5f	0.0737884
2	0xbc6ee38f	-0.014580621
3	0xbe35f587	-0.17769442
4	0x3e076854	0.13223392
5	0x3dcf264f	0.10114729
6	0xbdcdae3b	-0.100429974
7	0xbc635261	-0.013874621
8	0x3d5920b7	0.053009715
9	0xbd3dccb2	-0.04633779
10	0x3c4faab7	0.012674979
11	0xbd78a22c	-0.060701534
12	0x3e026cbb	0.1273679
13	0xbd73cf9d	-0.059524167
14	0xbd36ce0b	-0.04463009
15	0xbc167453	-0.009183007

fc1.weight f4 [64, 66]
0	0xbcdff893	-0.02734021
1	0x3da6f248	0.0815168
2	0xbe4817ae	-0.19540283
3	0xbeb84d16	-0.35996312
4	0x3e07cf13	0.13262586
5	0x3d4306d1	0.047613923
6	0xbd67887b	-0.056526642
7	0x3e6f8985	0.23392303
8	0xbebc6d20	-0.36802006
9	0x3ee133a1	0.43984702
10	0x3f1b2a73	0.6061165
11	0xbda0f161	-0.078585394
12	0xbced9ca6	-0.02900536
13	0x3db62faf	0.08895814
14	0xbd76b3a5	-0.060229916
15	0x3d542179	0.051789735
16	0xbe41cc48	-0.18925583
17	0x3e330abf	0.17484568
18	0xbefe77a2	-0.49700648
19	0x3c725b52	0.01479228
20	0xbe8e4086	-0.27783602
21	0x3d07877a	0.033088185
22	0xbed08a7e	-0.4073066
23	0x3dd04c92	0.10170855
24	0xbe4cb69d	-0.19991536
25	0x3e2eb89f	0.17062615
26	0x3ec6890b	0.3877643
27	0xbea9aa49	-0.3313773
28	0xbe3ec32e	-0.18629143
29	0xbbe8dcc2	-0.0071063945
30	0x3dcb1ce7	0.09917622
31	0xbd1564d5	-0.036473114
32	0x3e95c67d	0.29252997
33	0xbe8d6c3e	-0.27621645
34	0xbe54e8d8	-0.20791948
35	0x3e86327c	0.26210392
36	0x3e32c013	0.17456083
37	0x3eadd932	0.3395477
38	0xbc9e1d77	-0.01930116
39	0xbe8b58aa	-0.27216083
40	0x3e310a84	0.17289168
41	0xbd80ae2b	-0.0628322
42	0x3daad2b1	0.083409674
43	0x3ee35552	0.44401032
44	0xbe951024	-0.29113877
45	0xbe253415	-0.16133149
46	0x3de2d4c7	0.1107574
47	0x3ea42c75	0.32065168
48	0xbe3619f1	-0.17783333
49	0xbe1b90e4	-0.1519199
50	0xbd86bc49	-0.06578881
51	0xbe8b4965	-0.27204433
52	0x3d9e6000	0.07733154
53	0xbea85454	-0.32876837
54	0xbe4d54a9	-0.20051827
55	0x3e7f0f63	0.24908213
56	0xbd0170fe	-0.0316019
57	0x3eb46ae0	0.3523779
58	0x3e60e16d	0.21960993
59	0x3e944f90	0.2896695
60	0xbe46b7cb	-0.19406049
61	0x3edf3ce6	0.4360115
62	0xbcc9c918	-0.024632022
63	0xbf2ace18	-0.66720724
64	0xbdf17326	-0.11789541
65	0xbe3c7825	-0.18405207
66	0x3e253c60	0.16136312
67	0x3b0d05de	0.002151839
68	0xbe651b66	-0.22373733
69	0xbf0783f8	-0.52935743
70	0xb95c7adb	-0.00021026602
71	0xbe216f73	-0.15765171
72	0x3f365b49	0.7123304
73	0x3ee6a6bd	0.45049086
74	0x3d8a0395	0.067389645
75	0x3e26656b	0.16249625
76	0x3f068b71	0.5255652
77	0x3e55541c	0.20832866
78	0xbdc36c99	-0.09542198
79	0xbb057885	-0.0020366025
80	0xbd82a0e2	-0.06378342
81	0x3ead62ca	0.33864433
82	0x3db1384b	0.08653315
83	0xbf00d508	-0.5032506
84	0xbd0ec4f6	-0.034855805
85	0xbd8bc308	-0.06824309
86	0xbda42f44	-0.08016828
87	0xbe398d4d	-0.18120308
88	0x3cddf90b	0.027096292
89	0x3e84ebe3	0.25961217
90	0x3e9f4544	0.31107533
91	0x3e85f08e	0.2616009
92	0xbcb5d31a	-0.022195388
93	0x3b54d9a3	0.0032478354
94	0x3e1cfa74	0.15329915
95	0xbdf2f0ef	-0.11862361
96	0x3d647847	0.055778768
97	0xbd70de09	-0.0588055
98	0xbf0e08b4	-0.5548203
99	0x3e86759f	0.26261613
100	0x3e94fab5	0.29097524
101	0x3efc9e8d	0.49339715
102	0x3c936109	0.017990606
103	0x3c0ae05f	0.008476346
104	0xbdfb8e81	-0.1228304
105	0xbe0df86f	-0.13864301
106	0xbdfd5252	-0.12369217
107	0x3e6f400a	0.23364273
108	0xbe80973b	-0.2511538
109	0x3e4251bb	0.1897649
110	0xbdd5dcbd	-0.10442493
111	0xbe9c5f53	-0.30541477
112	0x3d0949f7	0.033517804
113	0xbaec4a04	-0.001802743
114	0x3eb3c0ca	0.35108024
115	0x3c80b99e	0.01571351
116	0x3d8dfcbd	0.069329716
117	0x3d967916	0.07347314
118	0xbe357194	-0.17719108
119	0x3ec20dc4	0.37901127
120	0x3d508f3b	0.050917845
121	0xbe89475c	-0.26812255
122	0x3d1d87bd	0.03845953
123	0x3e9d0a29	0.30671814
124	0x3f051233	0.51980895
125	0x3e8300ce	0.2558655
126	0x3e8b8999	0.27253416
127	0x3e1d83b3	0.1538227
128	0x3ea7669f	0.3269548
129	0x3e1a2e22	0.15056661
130	0xbd81f078	-0.06344694
131	0xbdd81ad1	-0.1055199
132	0x3f2a1bd8	0.66448736
133	0xbe0cc9f3	-0.13748913
134	0x3ee89270	0.45424223
135	0xbe56ca2a	-0.20975557
136	0x3e563471	0.20918442
137	0x3e98e624	0.29863083
138	0x3eec0cc1	0.4610348
139	0x3e4053e4	0.18782002
140	0xbe74035a	-0.23829404
141	0xbe7ebc22	-0.24876454
142	0xbea76dd5	-0.32700983
143	0x3cfaa3a4	0.030595608
144	0x3f099be8	0.5375352
145	0xbe570745	-0.20998867
146	0x3ea824b0	0.3284049
147	0x3ee605d8	0.44926333
148	0x3e42d56f	0.19026731
149	0x3e0e9285	0.1392308
150	0x3e15f984	0.14645964
151	0x3eb5aaee	0.35481972
152	0xbc515193	-0.012775796
153	0xbee1486c	-0.44000566
154	0xbdc54025	-0.09631375
155	0x3dee3b63	0.11632421
156	0x3b8390b1	0.0040150513
157	0xbddf1cb8	-0.108941495
158	0xbe810822	-0.25201517
159	0xbe955727	-0.29168054
160	0xbdf769d9	-0.12080736
161	0x3d8be10a	0.06830032
162	0xbee0b03d	-0.4388446
163	0x3e85497e	0.26032633
164	0xbe875ab5	-0.2643639
165	0xbe47800c	-0.1948244
166	0xbe86716b	-0.26258406
167	0xbe43b2db	-0.19111197
168	0xbea9bc87	-0.33151647
169	0xbf0e914a	-0.55690444
170	0xbcb91f55	-0.022597948
171	0xbe77d3e7	-0.24201928
172	0x3f001d21	0.5004445
173	0xbea61c96	-0.32443684
174	0xbdc8ef5e	-0.09811281
175	0xbe0f945f	-0.14021443
176	0x3c81326f	0.015771119
177	0x3de618d6	0.11235206
178	0x3d6cfb41	0.057856802
179	0x3f1d88a8	0.61536646
180	0xbb22b029	-0.0024824238
181	0xbf4d279b	-0.8013856
182	0x3d32a5a6	0.043615006
183	0x3e548a41	0.20755865
184	0x3da14812	0.078750744
185	0x3ee1ad8f	0.44077727
186	0x3f028516	0.50984323
187	0xbea00924	-0.31256974
188	0x3e968ed5	0.29405847
189	0x3e53a1b2	0.2066715
190	0x3e34cbd6	0.17655882
191	0x3d8d4bd8	0.06899232
192	0xbd784a56	-0.060617767
193	0xbe8de261	-0.27711776
194	0xbda93822	-0.082626596
195	0x3d1d6f9f	0.03843653
196	0xbe528b9d	-0.2056107
197	0xbdf243a0	-0.11829305
198	0x3e7411a0	0.23834848
199	0x3e5df02b	0.21673648
200	0xbed3d4df	-0.41373345
201	0xbe789f71	-0.24279572
202	0x3db62c8e	0.08895217
203	0xbd8aac4f	-0.067711465
204	0xbe31907a	-0.1734027
205	0x3e3c51ee	0.18390629
206	0xbe2e697c	-0.17032427
207	0xbe3dfedc	-0.18554252
208	0x3ed55122	0.41663462
209	0xbe1785f3	-0.14797191
210	0xbcdcd271	-0.026955815
211	0x3d15bfce	0.036559872
212	0xbc1dabcb	-0.009623478
213	0x3daa37a7	0.08311396
214	0x3d6266a0	0.055273652
215	0xbd119cec	-0.035550043
216	0x3ee83e6a	0.45360118
217	0x3d07cc93	0.03315408
218	0xbe3441da	-0.17603245
219	0xbe9c09a4	-0.30476105
220	0xbc953580	-0.018213987
221	0x3e193b9b	0.14964144
222	0xbe6fb35d	-0.23408265
223	0xbdd5fb7a	-0.10448356
224	0xbeb25c13	-0.34835872
225	0x3d0447d0	0.03229505
226	0xbe3e3397	-0.18574367
227	0xbdb93e71	-0.09045113
228	0x3e2ac4f3	0.16676693
229	0xbe0553a1	-0.13020183
230	0xbdef8600	-0.1169548
231	0xbeb17225	-0.34657398
232	0xbf171b56	-0.59026086
233	0xbe4416ab	-0.19149272
234	0x3cd3db08	0.025861278
235	0x3d15b375	0.036548097
236	0x3a2714ce	0.00063736446
237	0xbd2c3d2d	-0.04205053
238	0x3d91e21e	0.071232066
239	0x3e7f811f	0.249516
240	0xbdd4edc9	-0.103969164
241	0x3ec60338	0.3867433
242	0xbeb63108	-0.35584283
243	0xbdabb890	-0.08384812
244	0xbdf48db7	-0.119410925
245	0xbb5c8dac	-0.003365378
246	0xbdc4befd	-0.096067406
247	0xbe817622	-0.2528544
248	0xbe41e252	-0.1893399
249	0xbed52d77	-0.4163625
250	0x3eba9d27	0.36448023
251	0x3d5f1d22	0.054471143
252	0x3ccc3fc4	0.02493275
253	0xbe9b6ca6	-0.3035633
254	0xbe8bc882	-0.27301413
255	0x3db5f8e8	0.08885366

fc1.bias f4 [64]
0	0xbe66d529	-0.22542252
1	0xbdc38a5d	-0.09547875
2	0xbe431694	-0.19051582
3	0xbe8b6852	-0.27228028
4	0xbe289ffa	-0.16467276
5	0x3d526e9c	0.051375017
6	0xbe08a0de	-0.13342616
7	0xbe1e7142	-0.15472892
8	0xbe30539a	-0.17219391
9	0x3e042101	0.12903215
10	0x3cde65c6	0.027148139
11	0xbd822c1b	-0.06356069
12	0xbecf0d9b	-0.40440068
13	0xbe359497	-0.17732464
14	0xbe14337e	-0.14472768
15	0xbd485585	-0.048909683
16	0xbd869f3b	-0.065733396
17	0xbe0ac334	-0.13551027
18	0xbe3e6070	-0.18591475
19	0xbe1e58e0	-0.1546359
20	0xbded5d4b	-0.1159006
21	0xbd3e5549	-0.046468053
22	0xbe0c3f44	-0.13696009
23	0xbe894310	-0.26808977
24	0xbe031368	-0.12800372
25	0xbe84a7a0	-0.25909138
26	0xbdd1e83e	-0.10249375
27	0xbe42c904	-0.19021994
28	0xbe3c60eb	-0.18396346
29	0xbe367676	-0.17818627
30	0xbdee5fca	-0.11639364
31	0x3cd8771b	0.026423981
32	0xbd04b3e9	-0.03239814
33	0xbe8ede8b	-0.27904162
34	0xbdc90315	-0.09815041
35	0xbdb7fb37	-0.08983462
36	0x3e1882c2	0.1489363
37	0xbdd99f9e	-0.10626148
38	0xbe40c82b	-0.18826358
39	0xbe87e5ce	-0.26542515
40	0xbd8e808b	-0.069581114
41	0xbeb25a18	-0.3483436
42	0x3ca7c8b7	0.02048145
43	0xbe9a995d	-0.30195132
44	0xbe8dbb38	-0.276819
45	0xbe5dc17f	-0.21655844
46	0xbdf097ed	-0.117477275
47	0xbe7642da	-0.2404894
48	0xbe968736	-0.29400033
49	0xbe85b890	-0.26117373
50	0xbe80f330	-0.25185537
51	0x3d3b2f53	0.04569943
52	0x3d575c98	0.05257854
53	0xbe19d1c3	-0.15021424
54	0xbe2af769	-0.16695942
55	0x3ddfe28c	0.10931882
56	0x3ded3156	0.11581676
57	0xbd76d507	-0.060261752
58	0xbe5b02ff	-0.21387862
59	0xbc0a3f4e	-0.008437945
60	0xbdcca25a	-0.099919036
61	0xbe302c36	-0.17204365
62	0xbcb40fb1	-0.021980138
63	0x3c7c91dd	0.015415636

rnn.weight_ih f4 [192, 64]
0	0x3dd55196	0.10415952
1	0x3e389bb9	0.18028153
2	0xbdd4325e	-0.10361169
3	0x3c0e0379	0.00866782
4	0x3e697f31	0.22802426
5	0x3f3afaab	0.7303874
6	0x3e647102	0.22308734
7	0x3e7c238b	0.24622934
8	0x3e8c6703	0.27422342
9	0x3eadbe78	0.3393438
10	0x3ee1eb9b	0.44125065
11	0x3edd6c95	0.43246904
12	0xbcfbf337	-0.030755622
13	0x3e230d66	0.1592308
14	0x3e6bd7fe	0.23031613
15	0x3ebd8540	0.37015724
16	0x3ee854b3	0.4537712
17	0x3ebb9405	0.36636367
18	0x3e029afa	0.12754431
19	0x3ee2b15a	0.44275934
20	0x3e79c540	0.24391651
21	0x3f46adae	0.77608764
22	0x3eae2754	0.3401438
23	0x3dcf5322	0.10123278
24	0x3f24b9f6	0.64346254
25	0x3df65c75	0.120293535
26	0x3e99c72c	0.3003477
27	0x3ea97bdd	0.33102313
28	0x3e5e4dfb	0.21709435
29	0x3e5df90a	0.21677032
30	0x3e86c850	0.263247
31	0x3f34a425	0.70562965
32	0x3e49e57e	0.1971645
33	0x3d99427e	0.074833855
34	0x3e89514e	0.26819843
35	0x3e948aeb	0.29012236
36	0x3e687957	0.22702537
37	0x3e803bdf	0.25045678
38	0x3cd63e2c	0.026152693
39	0x3eae7ef6	0.34081239
40	0x3e4ab24a	0.19794574
41	0xbe90436f	-0.28176448
42	0x3f1a4d73	0.6027443
43	0x3e9695b2	0.29411083
44	0x3dfe6da9	0.1242326
45	0x3d60b591	0.054860655
46	0x3e489361	0.1958747
47	0x3e422093	0.18957739
48	0x3de3b2bf	0.111180775
49	0x3f1123f0	0.5669546
50	0x3e7c5292	0.24640873
51	0x3ed36632	0.41288906
52	0x3f085b7e	0.53264606
53	0x3eaefcad	0.3417715
54	0x3eb8b873	0.36078224
55	0x3f44310f	0.7663736
56	0x3e35f5ba	0.17769518
57	0x3d17500c	0.036941573
58	0x3ed7f192	0.4217649
59	0x3e20c932	0.1570175
60	0x3d402bee	0.046916895
61	0x3e7fb5f4	0.24971753
62	0xbd6cef5b	-0.057845455
63	0x3ed098fb	0.40741715
64	0xbebeff43	-0.37304124
65	0xbea0bd8d	-0.31394616
66	0xbe7f8268	-0.2495209
67	0x3e295e2c	0.1653983
68	0x3d228da6	0.039685868
69	0xbe855bde	-0.26046652
70	0xbd06d560	-0.032918334
71	0xbe2a3471	-0.16621567
72	0xbe0a8d8f	-0.13530563
73	0xbe958a25	-0.29206958
74	0xbf06462c	-0.52450824
75	0xbde41bb3	-0.11138096
76	0xbe8695ae	-0.26286072
77	0x3e02fa59	0.12790813
78	0x3d4f88cf	0.05066758
79	0x3e1c52b5	0.15265925
80	0xbda33faa	-0.07971127
81	0xbdb4df3c	-0.08831641
82	0x3d3c2533	0.045933913
83	0xbd12603a	-0.0357363
84	0x3c89290a	0.016743202
85	0xbeb615c0	-0.3556347
86	0xbd1b2c9d	-0.037884343
87	0x3cbb95fc	0.022898667
88	0xbe2a3368	-0.16621172
89	0xbe263db7	-0.1623448
90	0xbd715e3c	-0.05892776
91	0xbdcf9099	-0.10135002
92	0xbe60240d	-0.21888752
93	0xbec06266	-0.37575072
94	0xbe87b0f8	-0.26502204
95	0xbd4eacdd	-0.050457824
96	0xbe47d030	-0.19513011
97	0xbe8b6afc	-0.2723006
98	0xbef722d5	-0.48268762
99	0x3d9db521	0.07700563
100	0xbeb8b6b5	-0.36076894
101	0xbf06c350	-0.52641773
102	0xbeb7809d	-0.35840312
103	0x3edefb2e	0.4355101
104	0xbeb3a474	-0.35086405
105	0xbe6a63e4	-0.22889668
106	0xbe8e6a31	-0.27815393
107	0xbee90906	-0.45514697
108	0xbe186f7e	-0.14886281
109	0xbed26fb0	-0.41100836
110	0xbe9734fd	-0.29532614
111	0xbe994fff	-0.29943845
112	0xbe9ca8a8	-0.30597425
113	0xbe5b1f5e	-0.21398684
114	0xbe989c84	-0.29806912
115	0xbdab0529	-0.083505936
116	0xbe2883e2	-0.1645656
117	0xbd91bc0c	-0.07115945
118	0xbc82f9cf	-0.015988259
119	0xbed81045	-0.42199913
120	0xbe803fcc	-0.25048673
121	0xbd819d77	-0.06328862
122	0xbe4fda9c	-0.20298237
123	0xbe164c87	-0.1467763
124	0xbebef7ec	-0.37298524
125	0xbe5e6ed3	-0.21721964
126	0xbe3ece43	-0.1863337
127	0xbe872b92	-0.2640043
128	0xbd194230	-0.037416637
129	0xbe7a3342	-0.24433616
130	0xbe39df8a	-0.1815168
131	0xbe3c9646	-0.184167
132	0x3d6b10cd	0.05738907
133	0x3d07539a	0.033038713
134	0xbeb0e124	-0.3454677
135	0x3e764b59	0.2405218
136	0x3e962bff	0.2933044
137	0xbe0e1289	-0.13874258
138	0xbe81fe5e	-0.2538938
139	0xbdd4abfd	-0.10384367
140	0x3d5765ca	0.052587308
141	0x3dd39bf9	0.10332484
142	0xbeb7595a	-0.35810357
143	0xbe5d629d	-0.21619649
144	0xbca23444	-0.019800313
145	0xbd3865d0	-0.04501897
146	0xbea5427e	-0.32277292
147	0xbee0c4eb	-0.43900236
148	0xbcec6e70	-0.028861254
149	0x3e4c6446	0.19960126
150	0xbe6c438e	-0.23072645
151	0xbe0230a1	-0.12713863
152	0x3e2a0010	0.16601586
153	0xbda71068	-0.08157426
154	0x3daff7b6	0.08592169
155	0xbf2f4cea	-0.68476737
156	0xbcfee262	-0.031113807
157	0xbdc3cc23	-0.0956042
158	0xbefbf924	-0.49213517
159	0x3e31e670	0.17373061
160	0x3c8e1c10	0.017347366
161	0xbdb7f903	-0.08983042
162	0x3da0173d	0.07816932
163	0x3f02ebc5	0.51141006
164	0xbe850e52	-0.25987488
165	0x3f06222e	0.52395904
166	0xbe296c19	-0.16545142
167	0xbf53a03c	-0.82666373
168	0xbf11d384	-0.5696337
169	0xbeb9aee3	-0.3626624
170	0xbe96ca0e	-0.2945103
171	0x3e88dd59	0.26731375
172	0xbe85aa9c	-0.26106727
173	0xbeb54207	-0.35401937
174	0x3f083a26	0.5321373
175	0x3d78214e	0.060578637
176	0x3d052ee9	0.03251544
177	0xbf0e8198	-0.55666494
178	0x3ddfe4a7	0.10932284
179	0xbf2249bf	-0.6339378
180	0x3dce65af	0.10077988
181	0xbdbe3e5a	-0.09289236
182	0x3e28989c	0.16464466
183	0x3ceeddb4	0.02915845
184	0xbdde612c	-0.10858378
185	0xbe1e5be1	-0.15464737
186	0x3ba7a6a0	0.005116299
187	0xbe2f773d	-0.1713533
188	0xbc398024	-0.011322055
189	0xbe5accd2	-0.21367195
190	0xbe8dd68d	-0.27702752
191	0x3e823b9c	0.25436103
192	0x3e9342a6	0.28761786
193	0xbd6bc59c	-0.0575615
194	0xbeb55dc0	-0.35423088
195	0xbe10bac9	-0.14133753
196	0x3e0eac47	0.13932906
197	0xbdac2d08	-0.084070265
198	0x3d48ff23	0.049071442
199	0x3e9bb6c0	0.30412865
200	0x3e4501ca	0.19238964
201	0xbe5c8ceb	-0.21538131
202	0xbeac14fd	-0.33609763
203	0xbd343881	-0.0439992
204	0xbe826e70	-0.25474882
205	0xbb79f764	-0.003814184
206	0xbd7ecbd5	-0.062206108
207	0xbe9e6d7a	-0.309429
208	0xbeaa3712	-0.3324514
209	0xbcff08a4	-0.03113205
210	0x3e3f7068	0.18695223
211	0x3c7f2513	0.015572804
212	0x3e5b52a0	0.21418238
213	0xbaa8517c	-0.0012841667
214	0xbde90add	-0.11379025
215	0x3e3803ba	0.17970172
216	0xbde0348a	-0.10947521
217	0xbd228249	-0.03967503
218	0x3db9017d	0.09033487
219	0x3dc858df	0.09782576
220	0xbd9ae131	-0.07562483
221	0xbe4dd12d	-0.20099325
222	0x3e26348a	0.1623098
223	0xbdf4b189	-0.11947925
224	0x3b857f5e	0.0040740212
225	0xbe89d336	-0.26918954
226	0xbbe38fe4	-0.0069446433
227	0xbd818244	-0.06323674
228	0xbea36f81	-0.31921008
229	0x3d55494a	0.052071847
230	0xbdda3f3e	-0.10656594
231	0xbe334f2c	-0.1751067
232	0x3d8e2a5d	0.06941674
233	0x3e12a93f	0.14322375
234	0xbe2c5f91	-0.1683333
235	0xbd9e3df2	-0.07726659
236	0xbe2ad41d	-0.16682477
237	0x3e41b218	0.18915594
238	0xbe7567c0	-0.23965359
239	0xbebdafc4	-0.3704816
240	0xbd14a2b2	-0.03628797
241	0x3e75b3c9	0.23994364
242	0x3e245df5	0.16051467
243	0xbe6162c2	-0.2201033
244	0xbe90c0cf	-0.282721
245	0xbe0b65e0	-0.13613081
246	0x3ea0051b	0.31253895
247	0x3e1d0677	0.15334497
248	0xbcf82d81	-0.030295135
249	0xbda07a7d	-0.07835863
250	0xbddd96e1	-0.108197935
251	0x3d39bcfc	0.045346245
252	0x3dbe30c2	0.092866436
253	0x3c3bebef	0.011469825
254	0xbca8bff6	-0.020599347
255	0x3e12f857	0.14352547

rnn.weight_hh f4 [192, 64]
0	0x3e37e507	0.17958461
1	0xbe9376be	-0.2880153
2	0xbe62d033	-0.22149734
3	0xbe1fb179	-0.15595044
4	0xbe86f529	-0.26358917
5	0x3b22b451	0.0024826715
6	0x3c0f1362	0.008732649
7	0xbeab8708	-0.33501458
8	0x3e964835	0.29351965
9	0x3e21099b	0.1572632
10	0x3d9b49a1	0.07582403
11	0x3e66dc39	0.22544946
12	0xbd2c34f4	-0.042042688
13	0xbe48dc15	-0.19615205
14	0x3e43b40c	0.19111651
15	0xbe1c379c	-0.15255588
16	0xbdfa46cd	-0.122205354
17	0x3e4a5c4f	0.19761775
18	0xbd423e18	-0.0474225
19	0x3e0e896b	0.13919608
20	0xbd5380c3	-0.05163647
21	0xbd11b165	-0.035569567
22	0xbd5b2fcb	-0.053512376
23	0x3dde153e	0.108438954
24	0xbe0a1edc	-0.13488334
25	0xbe861ae7	-0.261924
26	0x3da08298	0.07837409
27	0x3e2cfab7	0.16892515
28	0x3ce9ca40	0.028538823
29	0xbe5db9d7	-0.21652924
30	0x3e2a9d7a	0.16661635
31	0x3e1f73a6	0.1557146
32	0x3e3fc2a8	0.18726599
33	0xbd850eda	-0.06496973
34	0x3e56c7d2	0.20974663
35	0xbdb2c634	-0.087292105
36	0xbc825c91	-0.01591328
37	0x3cf6ac75	0.03011153
38	0xbdcb1964	-0.09916952
39	0x3d64eb55	0.055888493
40	0x3eaf1caf	0.3420157
41	0x3dc4065e	0.09571527
42	0xbd609e0c	-0.054838225
43	0x3d84fed1	0.06493915
44	0x3d988a55	0.0744826
45	0xbcb7c5a2	-0.022433106
46	0xbc518f48	-0.012790509
47	0x3ea2d2b8	0.3180139
48	0xbe0c63cb	-0.13709943
49	0xbd801310	-0.06253636
50	0x3e0d754c	0.13814276
51	0xbc2bfd1c	-0.010497358
52	0x3e0adead	0.13561507
53	0xbd6c69ab	-0.05771796
54	0x3cbc662c	0.022997938
55	0x3e621e97	0.22081982
56	0xbe43ecae	-0.19133255
57	0xbe16fc26	-0.14744624
58	0xbeacd512	-0.3375631
59	0xbd0befce	-0.034164242
60	0xbde828f5	-0.11335937
61	0xbe3ca3bb	-0.18421833
62	0xbd19e4c7	-0.037571695
63	0xbd902b7b	-0.07039543
64	0xbeb546b9	-0.3540552
65	0x3ebb431f	0.36574647
66	0x3e202ae6	0.15641364
67	0x3e7808b7	0.24222074
68	0x3ed86001	0.42260745
69	0x3d4f35b6	0.050588332
70	0x3d87c35d	0.066290595
71	0x3e178dea	0.1480023
72	0xbeaae1b7	-0.33375332
73	0xbe961da5	-0.29319492
74	0x3e651808	0.22372448
75	0xbe428cee	-0.18999073
76	0x3dd5166f	0.104046695
77	0x3e2af505	0.1669503
78	0x3cc67ce3	0.024229473
79	0x3c2ebdfa	0.010665411
80	0xbd8daea4	-0.06918076
81	0x3e249829	0.1607367
82	0x3e6ba963	0.23013835
83	0xbd0121d0	-0.031526387
84	0x3e97a15e	0.296153
85	0xbd54b768	-0.051932722
86	0xbeae49e8	-0.3404076
87	0xbde5fc2f	-0.11229741
88	0x3df674ec	0.1203402
89	0x3ea1c86a	0.31598216
90	0xbde09f75	-0.10967914
91	0x3e55a72e	0.20864555
92	0x3d8f58ef	0.069993846
93	0x3e61bc51	0.22044493
94	0xbe35ac4d	-0.17741509
95	0xbe4627c4	-0.19351107
96	0xbdf244ec	-0.11829552
97	0xbea168f8	-0.31525397
98	0x3dc5d7b6	0.09660284
99	0xbe367341	-0.17817403
100	0x3e15f6ce	0.1464493
101	0xbe98127b	-0.297016
102	0x3e9b1835	0.30291906
103	0x3df456a2	0.119305864
104	0xbb44cc1a	-0.003002888
105	0xbea7426b	-0.3266786
106	0x3e7a4eb2	0.24444082
107	0xbe4d0490	-0.20021272
108	0x3dc412c8	0.09573895
109	0x3e815ce2	0.25266176
110	0x3b471c3a	0.0030381815
111	0xbd808c75	-0.0627679
112	0x3ea2fd8c	0.31834066
113	0xbd0fa4a6	-0.03506913
114	0xbe9b4e3b	-0.30333123
115	0x3ea48d55	0.32139078
116	0xbe546989	-0.20743383
117	0xbe94ab74	-0.29037058
118	0xbe9a6172	-0.3015247
119	0xbeb1f2c4	-0.34755528
120	0x3e1864e3	0.14882235
121	0xbdf205f2	-0.1181754
122	0x3ea122fa	0.31471997
123	0xbbf8cfc1	-0.0075931256
124	0xbc33cfae	-0.010974808
125	0x3bc47159	0.0059949574
126	0xbe01bd50	-0.12669873
127	0xbd0a7c4a	-0.033809938
128	0xbeb64b74	-0.3560444
129	0xbe4bd99b	-0.19907229
130	0x3df95ecf	0.121762864
131	0x3e6a364b	0.22872274
132	0x3defc4aa	0.117074326
133	0x3eb808f3	0.35944328
134	0xbe89f105	-0.26941696
135	0x3eae9a0c	0.34101903
136	0xbec1e73b	-0.37871727
137	0xbecaae36	-0.39586037
138	0x3e315bfe	0.17320248
139	0xbe960bf7	-0.29306003
140	0xbdad2ea8	-0.084561646
141	0x3eaff68f	0.34367797
142	0xbe4e53e6	-0.20149192
143	0xbdb8058a	-0.089854315
144	0x3e2b172b	0.16708057
145	0x3d744875	0.059639413
146	0xbe33ce4b	-0.17559163
147	0xbe34ec64	-0.17668301
148	0x3f107716	0.5643171
149	0x3eabb7ef	0.33538768
150	0xbed488a9	-0.41510513
151	0xbf046be2	-0.51727116
152	0x3edb450b	0.42826113
153	0x3eda86e5	0.4268104
154	0x3e2f7d25	0.17137583
155	0x3e3b1359	0.182691
156	0xbea1f72a	-0.31633884
157	0xbda88573	-0.082285784
158	0xbe2ce324	-0.16883522
159	0xbd57fe7a	-0.052732922
160	0xbe74cf77	-0.23907267
161	0xbd6b3647	-0.05742481
162	0xbd9b53f5	-0.07584373
163	0x3e17e92d	0.14835043
164	0x3e4ff782	0.2030926
165	0xbeb0e2e2	-0.34548098
166	0x3ef0da3f	0.4704151
167	0x3ebda304	0.37038434
168	0xbe4eb67d	-0.20186801
169	0xbede3d3b	-0.4340609
170	0x3f033a0d	0.51260453
171	0x3e31048d	0.17286892
172	0x3dead202	0.11465837
173	0x3e66c6b0	0.22536731
174	0x3d5e054e	0.054204278
175	0x3d87fea7	0.06640368
176	0x3e1fb79c	0.15597385
177	0x3cf0e431	0.029405685
178	0xbf010a43	-0.50406283
179	0x3eb8a17f	0.36060712
180	0xbe88581e	-0.26629728
181	0xbeb121b6	-0.34596032
182	0xbee9a63a	-0.45634633
183	0xbef68510	-0.48148394
184	0x3eff78d8	0.49896884
185	0xbe57d620	-0.21077776
186	0x3de03078	0.10946745
187	0x3e8ffc86	0.28122348
188	0x3e705c80	0.23472786
189	0x3cdac256	0.026703995
190	0x3e4188c4	0.18899828
191	0xbe779cad	-0.24180861
192	0x3d1e7868	0.038689047
193	0xbe531bef	-0.20616125
194	0x3ec723ec	0.38894594
195	0x3e4dc693	0.20095281
196	0x3e6188fa	0.22024909
197	0xbdb397f4	-0.08769217
198	0x3d06ee0d	0.032941867
199	0x3e71422b	0.23560397
200	0xbe11cd17	-0.14238392
201	0xbe1ba21b	-0.15198557
202	0x3d8d6165	0.06903342
203	0xbec092ba	-0.37611943
204	0x3e5f77de	0.2182307
205	0x3ddb6218	0.10712069
206	0xbd84c9fc	-0.06483838
207	0x3c836c24	0.016042776
208	0x3e8d0e12	0.27549797
209	0x3ece4c10	0.40292406
210	0xbe280be2	-0.16410783
211	0xbdc403aa	-0.09571011
212	0x3e98ac07	0.29818746
213	0x3e3d8ebf	0.18511485
214	0xbe5bc54e	-0.21461985
215	0xbe7db004	-0.24774176
216	0x3bff2d4c	0.007787382
217	0xbd927334	-0.071508795
218	0xbe09074a	-0.13381687
219	0x3ed4f8b7	0.41596004
220	0xbdf6d526	-0.120523736
221	0xbe32dede	-0.1746783
222	0x3c58b479	0.013226622
223	0xbe8e67bf	-0.27813527
224	0xbebe1bf8	-0.37130713
225	0x3e84d6f2	0.2594524
226	0x3e634bcd	0.22196884
227	0x3ea22730	0.31670523
228	0x3d890439	0.066902585
229	0xbe048fc4	-0.12945467
230	0xbd3ae24f	-0.04562598
231	0x3e876dce	0.26450962
232	0x3e64d7ea	0.2234799
233	0xbe1f4ac0	-0.15555859
234	0x3d9dc892	0.077042714
235	0x3c0eaa4a	0.008707592
236	0x3eef2699	0.46709135
237	0x3e430d69	0.19048084
238	0xbd301507	-0.042988803
239	0x3e2fa897	0.17154156
240	0x3dc84ed2	0.09780659
241	0x3e9c7a95	0.30562273
242	0xbecd965d	-0.4015378
243	0x3ed617c5	0.4181501
244	0xbe2e7683	-0.17037396
245	0xbe5fb8a7	-0.21847783
246	0xbe99e72b	-0.3005918
247	0xbea11111	-0.31458333
248	0x3e5ab2fa	0.21357337
249	0xbefd6cb3	-0.49496993
250	0xbe20acf8	-0.15690982
251	0x3e28b587	0.16475497
252	0x3e29e0ea	0.16589704
253	0xbb60da3b	-0.0034309763
254	0x3e10f747	0.14156829
255	0xbe5d089e	-0.21585318

rnn.bias_ih f4 [192]
0	0x3f1af613	0.6053173
1	0xbea62836	-0.32452554
2	0xbeb58791	-0.3545499
3	0xbe8ab6ef	-0.27092692
4	0x3e41d147	0.18927489
5	0xbbd59eec	-0.006519189
6	0xbdd6fe99	-0.104977794
7	0xbe939e4c	-0.28831708
8	0x3f3022d9	0.68803173
9	0x3ebb30d3	0.36560687
10	0xbdeed698	-0.11662024
11	0xbdacb872	-0.08433618
12	0xbe507d65	-0.20360334
13	0x3e1bdf90	0.15222001
14	0xbcf3c649	-0.029757636
15	0xbe0c4a03	-0.13700108
16	0x3be38db3	0.006944382
17	0x3e012b1b	0.126141
18	0xbe301384	-0.17194945
19	0x3e36c9f3	0.17850475
20	0xbd3a23d1	-0.045444313
21	0xbe88afb2	-0.26696545
22	0xbdc7c06b	-0.09753498
23	0xbda341cb	-0.079715334
24	0xb9edc9fe	-0.00045354659
25	0xbe5ea96a	-0.21744314
26	0xbd6fa405	-0.05850603
27	0x3e0969fd	0.13419338
28	0xbcd0a453	-0.02546898
29	0x3e35386e	0.17697307
30	0x3e65943b	0.22419827
31	0xbebe449f	-0.3716173
32	0xbe499001	-0.1968384
33	0x3d41af62	0.0472864
34	0x3cf45477	0.029825432
35	0xbd8aa028	-0.06768829
36	0xbe8a3104	-0.2699052
37	0xbd977dc6	-0.07397036
38	0x3d737174	0.05943437
39	0x3bd6a779	0.006550726
40	0xbcb3383f	-0.021877406
41	0x3f9719f5	1.1804796
42	0x3e06fa93	0.13181524
43	0xbe48707d	-0.19574161
44	0xbd980644	-0.0742307
45	0xbeed2d6a	-0.4632371
46	0xbe8b0fec	-0.27160585
47	0xbe994c62	-0.29941088
48	0xbb97b531	-0.004629754
49	0x3d242f34	0.04008408
50	0x3d8a2a43	0.06746342
51	0x3e8839f0	0.26606703
52	0xbbfe3af7	-0.007758494
53	0xbd92e8b5	-0.071732916
54	0x3e105731	0.14095761
55	0xbdbff317	-0.093725376
56	0xbcbdc3e1	-0.023164691
57	0x3dfcb3e7	0.12339001
58	0x3e2564b6	0.161517
59	0xbe46a795	-0.19399865
60	0xbdaf5528	-0.08561164
61	0xbec4de2c	-0.38450754
62	0xbe7adebf	-0.24499033
63	0xbf22746a	-0.63458884
64	0xbfdb3798	-1.7126341
65	0x3f4f143a	0.8089024
66	0x3f4da8ae	0.8033551
67	0x3f0014e3	0.5003187
68	0x3e9fb0c4	0.3118955
69	0xbe82df17	-0.2556083
70	0x3f05d8eb	0.52284116
71	0x3f49a1cc	0.7876251
72	0xc032831d	-2.7892525
73	0xbe6fe6d4	-0.23427898
74	0x3db36cd5	0.087609924
75	0x3ef744c6	0.48294657
76	0x3e5dbde9	0.21654476
77	0xbf2ea8d9	-0.6822639
78	0x3e9448c7	0.28961775
79	0x3e8ef179	0.27918604
80	0x3e6e9f92	0.23303059
81	0x3e791828	0.24325621
82	0x3ee9fcf3	0.45700797
83	0xbf54611d	-0.82960683
84	0x3f0c82f4	0.5488732
85	0x3f37f05c	0.71851134
86	0x3f20d150	0.62819386
87	0x3f334046	0.7001995
88	0xbeb9793f	-0.36225316
89	0x3e93c3f8	0.2886045
90	0x3e6d338d	0.23164196
91	0xbee22d66	-0.4417526
92	0xbcb9e3c1	-0.02269161
93	0x3eca2c29	0.39486817
94	0xbe222386	-0.15833864
95	0x3f3ef9c6	0.74599874
96	0x3f04235e	0.51616466
97	0xbd9ec584	-0.07752517
98	0xbed1acca	-0.4095214
99	0x3db1e8d6	0.08686988
100	0x3f1cb78d	0.61217576
101	0xbf0ae1fe	-0.54251087
102	0xbe6c5762	-0.23080209
103	0xbec53c3b	-0.38522515
104	0xbea2c086	-0.3178751
105	0xc0494c3f	-3.1452787
106	0xbe12d3d7	-0.14338623
107	0xbda76c0a	-0.08174904
108	0xbe9b1e76	-0.30296677
109	0x3f320698	0.6954131
110	0x3e102283	0.14075665
111	0x3ee8f9c5	0.4550306
112	0x3eb1490b	0.3462604
113	0x3f05ae91	0.5221949
114	0x3f15d05c	0.58521056
115	0x3edc083d	0.42975035
116	0xbe4f551e	-0.20247313
117	0x3ed4f5df	0.41593835
118	0x3f24e313	0.6440899
119	0x3f34d35e	0.7063502
120	0x3f2398a6	0.639048
121	0xbecd10e9	-0.40051964
122	0xbeaae1d9	-0.33375433
123	0x3e5869ec	0.21134156
124	0x3f176262	0.59134495
125	0x3f4b31ac	0.7937267
126	0x3e727975	0.23679145
127	0x3f12d189	0.57350975
128	0x3f89a8ef	1.075468
129	0xbd2d6a89	-0.042337928
130	0xbdb3df6b	-0.08782848
131	0x3b56a3b7	0.003275139
132	0xbe6e01fc	-0.23242944
133	0xbe9dfc87	-0.30856726
134	0x3dad35a5	0.084574975
135	0xbdd02762	-0.10163762
136	0x3f8cd6b8	1.1003027
137	0x3eea55bd	0.45768538
138	0x3e293af5	0.16526397
139	0xbe35badb	-0.17747061
140	0x3e724454	0.23658878
141	0xbe87917e	-0.2647819
142	0x3cb3ee2d	0.021964157
143	0x3e4d606f	0.20056318
144	0xbd9e826a	-0.07739718
145	0xbe0ea9e2	-0.13931993
146	0x3e744f98	0.23858488
147	0x3e993aff	0.29927823
148	0x3e3d1c26	0.18467769
149	0xbd14388f	-0.03618675
150	0xbe8921aa	-0.26783496
151	0xbe123bcf	-0.14280628
152	0xbc2194e9	-0.009862163
153	0xbdc54edd	-0.096341826
154	0x3e4cf0a5	0.20013674
155	0x3dd84e10	0.10561764
156	0x3ec583f3	0.38577232
157	0xbce7e9de	-0.028309759
158	0x3e51fdc6	0.20506963
159	0x3aab1e38	0.001305527
160	0xbdf067f3	-0.11738577
161	0x3e70e269	0.23523869
162	0x3ea39d95	0.31956163
163	0x3de301a0	0.11084294
164	0x3e1dd022	0.15411428
165	0x3e820d2e	0.2540068
166	0xbea709a5	-0.32624546
167	0xbdae576b	-0.085127674
168	0x3e5bf484	0.21479994
169	0x3ff19118	1.8872404
170	0xbe182f16	-0.14861712
171	0xbe157c97	-0.14598309
172	0x3e6b7c4f	0.22996639
173	0xbd85c66e	-0.06531988
174	0xbdbabb27	-0.09117728
175	0xbe29c2a2	-0.16578153
176	0xbe98dcfa	-0.29856092
177	0xbe5d435d	-0.21607728
178	0xbe157115	-0.14593919
179	0xbebbd90b	-0.36689028
180	0x3e91837a	0.2842062
181	0x3e2abcda	0.16673604
182	0xbe1547b1	-0.1457813
183	0xbd141898	-0.036156267
184	0x3e82c15b	0.25538144
185	0x3e1fa667	0.15590821
186	0xbea5dd8c	-0.3239559
187	0xbe22a357	-0.15882622
188	0x3e3e8b25	0.18607767
189	0x3d276129	0.040864144
190	0x3da10edd	0.07864163
191	0xbc1197bf	-0.008886277

rnn.bias_hh f4 [192]
0	0x3f040cad	0.5158184
1	0xbdfe4a9d	-0.12416575
2	0xbe55889e	-0.20852897
3	0xbe5ed9d3	-0.21762781
4	0x3e48322b	0.19550388
5	0x3e000227	0.12500821
6	0xbeae5960	-0.34052563
7	0xbe90042d	-0.28128186
8	0x3f216cc1	0.6305657
9	0x3e974ba9	0.29549912
10	0xbd002cd4	-0.03129275
11	0xbdedd2f8	-0.11612505
12	0xbe3c76a6	-0.18404636
13	0x3e7cdd18	0.24693716
14	0xbd19152b	-0.037373703
15	0xbe36b430	-0.17842174
16	0x3cd19c30	0.025587171
17	0x3bc06153	0.005870977
18	0xbe88a94d	-0.26691666
19	0x3c738700	0.0148637295
20	0xbcca1e53	-0.024672663
21	0xbec61a0f	-0.38691756
22	0xbd1614f4	-0.036641076
23	0xbdad99e1	-0.08476616
24	0xbd9bc517	-0.07605951
25	0xbe80e7cd	-0.2517685
26	0xbda60502	-0.08106424
27	0x3d852094	0.065003544
28	0x3e498994	0.19681388
29	0x3d8f677c	0.0700216
30	0x3db479ae	0.08812271
31	0xbecaa6c7	-0.39580366
32	0xbe4f5a94	-0.20249397
33	0x3d127a7f	0.035761353
34	0xbccaa852	-0.024738465
35	0x3cfbad8b	0.0307224
36	0xbea2fa4c	-0.31831586
37	0xbd2e6a1d	-0.042581666
38	0x3e3be9f8	0.18350971
39	0x3daf75a4	0.0856736
40	0x3cc8cc05	0.024511347
41	0x3f982752	1.1887
42	0x3e0dab46	0.13834867
43	0xbe9eaf11	-0.3099294
44	0xbd146f16	-0.036238752
45	0xbef3b27e	-0.47597116
46	0xbec673e3	-0.3876029
47	0xbe1d2782	-0.15347102
48	0xbe053b8a	-0.13010994
49	0xbdeaf3b5	-0.11472265
50	0xbdc7b9a9	-0.09752209
51	0x3e67934f	0.22614788
52	0x3d239d85	0.039945144
53	0xbd84e513	-0.06489005
54	0x3de4a002	0.111633316
55	0x3b48fde1	0.0030668902
56	0xbd73a770	-0.059485853
57	0x3e396d18	0.18108022
58	0x3cecfb18	0.028928325
59	0xbde07fee	-0.10961901
60	0xbe8c181d	-0.27362147
61	0xbe9fd275	-0.31215253
62	0xbe735b2b	-0.23765247
63	0xbf3b2481	-0.73102576
64	0xbfd74bb0	-1.6819973
65	0x3f4d1f0b	0.8012549
66	0x3f37cb32	0.71794426
67	0x3f0f45ff	0.5596618
68	0x3f0126ef	0.5045003
69	0xbe359142	-0.17731193
70	0x3f298aef	0.6622762
71	0x3f29379b	0.6610047
72	0xc03a8aee	-2.9147296
73	0xbec85f93	-0.39135417
74	0x3e3dca39	0.18534173
75	0x3f047f94	0.5175717
76	0x3eb26943	0.34845933
77	0xbf2cad66	-0.67452085
78	0x3e940bf8	0.2891538
79	0x3eac3818	0.33636546
80	0x3e8bf315	0.27333894
81	0x3ed9d510	0.42545366
82	0x3ea8b34b	0.3294929
83	0xbf574c2c	-0.84100604
84	0x3f1d198c	0.61367106
85	0x3f289164	0.6584685
86	0x3f264358	0.6494651
87	0x3f1369fa	0.5758358
88	0xbeeeca00	-0.4663849
89	0x3eb8c374	0.3608662
90	0x3e17b961	0.1481681
91	0xbeb77b08	-0.35836053
92	0x3beb5525	0.007181781
93	0x3e9697fd	0.29412833
94	0xbe06809f	-0.13135003
95	0x3f43848d	0.7637413
96	0x3f161210	0.5862131
97	0x3cca6d77	0.0247104
98	0xbe8e755a	-0.27823907
99	0x3e7434aa	0.23848215
100	0x3f0347aa	0.51281226
101	0xbef21fb4	-0.47289813
102	0xbe8691ab	-0.2628301
103	0xbecd2661	-0.40068343
104	0xbea85997	-0.32880852
105	0xc03f7587	-2.9915483
106	0xbddba268	-0.10724336
107	0xbdaccc1a	-0.08437367
108	0xbe37063c	-0.17873472
109	0x3f595ce9	0.84907395
110	0x3de5ed3c	0.112268895
111	0x3efa3bd2	0.48873764
112	0x3e76651d	0.24062009
113	0x3f0c69b0	0.54848766
114	0x3f1defe3	0.61694163
115	0x3ed2aac2	0.41145903
116	0xbdee2403	-0.116279624
117	0x3efb8df7	0.49131748
118	0x3f27a1d9	0.65481335
119	0x3f12eb8d	0.5739067
120	0x3f1460ec	0.5796039
121	0xbee9fe49	-0.45701817
122	0xbe94e50c	-0.29081
123	0x3e90a4e3	0.282508
124	0x3ec2ef47	0.3807318
125	0x3f4b4aa9	0.794108
126	0x3e24f786	0.16110048
127	0x3f26b2d7	0.6511664
128	0x3f910071	1.132826
129	0x3da0b8d7	0.078477554
130	0xbde5ed8d	-0.1122695
131	0xbd9e92a3	-0.077428125
132	0xbeeea046	-0.46606654
133	0xbe9b5537	-0.3033845
134	0x3e030b56	0.12797293
135	0x3cddf618	0.027094886
136	0x3fa0517e	1.252487
137	0x3f852f18	1.0404997
138	0x3e70d6ea	0.23519483
139	0xbe21d468	-0.15803683
140	0x3e4b401a	0.19848672
141	0xbf775081	-0.96607214
142	0xbcc715a5	-0.024302313
143	0x3e9533eb	0.29141173
144	0x3ec1b9dc	0.37837112
145	0xbdc90681	-0.09815694
146	0x3d99fc2d	0.07518802
147	0x3ebc5ecb	0.3679107
148	0x3dd12e36	0.10213892
149	0x3b81cd00	0.0039612055
150	0xbd046c37	-0.032329764
151	0xbdbab206	-0.091159865
152	0xbe1098b0	-0.14120746
153	0xbdfe0d48	-0.12404877
154	0x3d38c80d	0.04511266
155	0x3edf8e80	0.43663406
156	0x3e98f1e0	0.29872036
157	0x3e74daf6	0.23911652
158	0x3f14b26b	0.58084744
159	0x3d13a152	0.03604252
160	0xbd8b18b3	-0.067918204
161	0x3e91999f	0.28437516
162	0x3e10f39d	0.14155431
163	0x3e065874	0.1311968
164	0x3e5e5561	0.21712257
165	0x3f0ef8f8	0.55848646
166	0xbf1d1eab	-0.6137492
167	0xbe983ddc	-0.29734695
168	0x3e5e58bb	0.21713535
169	0x3ff61263	1.9224361
170	0xbe883e33	-0.26609954
171	0xbda75a1c	-0.08171484
172	0x3db0ea8f	0.086384885
173	0xbbc3cf74	-0.005975658
174	0x3e770def	0.24126409
175	0x3df463c0	0.11933088
176	0xbe5833d6	-0.21113524
177	0xbe9addfd	-0.3024749
178	0xbe21e956	-0.15811667
179	0xbeaf9812	-0.34295708
180	0x3eccc9b1	0.39997628
181	0x3e7b9afa	0.24570838
182	0xbe3f8c41	-0.18705846
183	0xbd0fede3	-0.035138976
184	0x3dce9060	0.10086131
185	0x3f283f33	0.65721434
186	0xbdec5c50	-0.11541045
187	0xbea229f0	-0.3167262
188	0x3e88c241	0.26710704
189	0xbc68bcd7	-0.014205179
190	0x3e4f4b28	0.20243514
191	0xbda1fdac	-0.07909712

fc2.weight f4 [1, 64]
0	0x3e9103f6	0.28323334
1	0x3a2a7aad	0.00065032655
2	0xbccbc8a6	-0.02487595
3	0x3d87a0ea	0.06622489
4	0xbce7e8d4	-0.028309263
5	0xbdbb9e95	-0.091611065
6	0xbbfa31e2	-0.007635341
7	0x3e3f90a9	0.18707527
8	0x3e58153e	0.21101853
9	0x3e105943	0.1409655
10	0x3dddd271	0.10831154
11	0xbe587d00	-0.21141434
12	0x3c19b8e3	0.009382459
13	0xbddd9191	-0.1081878
14	0xbe2653a6	-0.16242847
15	0x3defc095	0.11706654
16	0x3e2c8f00	0.16851425
17	0x3d2ce565	0.042210955
18	0xbbbe8430	-0.005814098
19	0x3dd918b8	0.10600418
20	0x3e7e34f4	0.24824888
21	0x3dc7a7a6	0.09748773
22	0xbe0a006b	-0.13476722
23	0xbe03bec6	-0.12865743
24	0xbcb9dd57	-0.02268855
25	0xbbf277f1	-0.007399552
26	0x3cc14a3c	0.023594968
27	0x3e08a83c	0.13345426
28	0x3ddeb47f	0.10874271
29	0x3d84fa6c	0.06493077
30	0x3e1788ba	0.14798251
31	0xbc6d53a7	-0.014485276
32	0xbdd9f895	-0.106431164
33	0x3dde79a1	0.108630426
34	0x3d95ae81	0.073086746
35	0x3e24a45b	0.16078322
36	0x3d4b2432	0.049595065
37	0x3d98ae1b	0.07455083
38	0xbe439bbb	-0.19102375
39	0xbd151207	-0.036394145
40	0x3d0c9b35	0.034327704
41	0x3e6e05c2	0.23244384
42	0x3d54d826	0.051963948
43	0xbc88dcf8	-0.016706929
44	0x3dc65b2f	0.09685361
45	0x3d039bab	0.03213088
46	0x3d5bfc8e	0.05370765
47	0x3cffced7	0.031226559
48	0xbd76e9f9	-0.060281727
49	0x3ca4d8f8	0.02012299
50	0xbe1f38d3	-0.1554902
51	0x3da112ee	0.07864939
52	0x3d4f2feb	0.050582808
53	0xbb4c51e8	-0.003117675
54	0xbe875641	-0.26432994
55	0xbe331f1b	-0.17492335
56	0x3e70f044	0.23529154
57	0x3d125c76	0.03573271
58	0xbdc35761	-0.095381506
59	0xbc9d37f4	-0.01919172
60	0x3e0a933d	0.1353273
61	0xbae69ef2	-0.0017594977
62	0x3c029bab	0.007971684
63	0x3b8efd2e	0.0043636775
